Design/pnet.pth (torch, 32695 bytes, 12 tensors)

f1.0.weight f4 [10, 3, 3, 3]
000000 a0 a8 94 bd 6b 54 cb 3c 5a 8c 70 bd 15 58 c9 bd
       -0.07258725 0.024820527 -0.0587276 -0.098312534
000010 9f c4 48 3e e8 96 1c be a6 2c d4 bd fa 15 1a 3d
       0.19606255 -0.15291941 -0.103600785 0.037618615
000020 59 29 b4 3c da ab 32 be c8 85 85 3c 6c a8 2c 3e
       0.021992372 -0.17448369 0.016299143 0.16861123
000030 3b be 85 bd 58 fc 19 3e 72 d1 96 3c d4 9a 97 bc
       -0.06530424 0.15037668 0.018410418 -0.018506445
000040 41 3d 56 3e 40 e7 c0 3c 13 02 ce be ff 14 64 3e
       0.20921804 0.023547769 -0.40235958 0.22273634
000050 64 32 51 3e 6a 28 da bd 28 67 aa 3e 04 4f 2f bd
       0.20429379 -0.106522396 0.33281827 -0.042799965
000060 77 92 20 3e 53 53 84 bd 86 1e ab be bd e1 ea ba
       0.15680872 -0.06461205 -0.33421725 -0.0017920058
000070 ac 44 e1 bd 44 80 0b be 1d dc 8e bc ca d6 69 bd
       -0.10999426 -0.13623148 -0.017438943 -0.057089604
000080 11 64 33 bd b3 63 a9 bc 91 43 ff 3d 1c 19 08 be
       -0.043796603 -0.020677423 0.12464059 -0.13290828
000090 40 0e b5 3d 75 d9 f2 3d 70 13 28 3e 46 48 2a 3e
       0.088406086 0.11857883 0.16413665 0.16629133
0000a0 3d 71 0d be 5a db 41 3e 61 8a 67 3e f6 8f 2a be
       -0.13812728 0.18931332 0.22611381 -0.16656479
0000b0 41 20 28 3e 60 6b 48 bc 98 4e ec bd d8 6f 81 3e
       0.16418554 -0.012232631 -0.11538428 0.25280643
0000c0 20 d6 30 be 61 be e7 be fb 01 71 3d a4 11 01 3e
       -0.17269182 -0.45262435 0.05883978 0.12604386
0000d0 25 a4 69 be 95 98 8d 3d 6b 45 fe bc c2 61 58 3e
       -0.22816522 0.06913868 -0.03103896 0.21131042
0000e0 33 47 86 3d b5 85 99 bd b1 af d3 bc 78 e6 4a 3e
       0.06556549 -0.07496206 -0.025840612 0.1981448
0000f0 7b 29 b9 bd 6d ac 92 bc cf 1d c9 bd d9 7a 31 bc
       -0.09041115 -0.017904485 -0.09820139 -0.010832512
000100 30 4e af 3b ce 52 1a be 85 be 34 bc 01 37 08 3e
       0.005349897 -0.1507065 -0.0110317515 0.13302232
000110 82 09 8a bc 7d a6 9c bd ed 95 bf 3d 5f 60 0a bd
       -0.016850237 -0.076489426 0.09354768 -0.033783313
000120 b2 c9 75 be 20 d2 16 bf 9b 5b c1 be bb a8 39 3e
       -0.24002722 -0.58914375 -0.37765202 0.18130772
000130 dc a8 88 3c 25 a4 ea bd 59 95 b5 3e 89 59 b5 3e
       0.01668208 -0.11457089 0.35465506 0.35419872
000140 f3 24 d3 3e a9 20 d7 3b 76 8b 41 be 49 cb 25 be
       0.41239128 0.0065651727 -0.18900856 -0.16190828
000150 7b 4c 75 bd b9 ba 9a bc 26 26 17 be 21 64 a9 3d
       -0.05988739 -0.018887864 -0.14760646 0.08271051
000160 87 fd 8c bd fa ef d3 3c 47 06 9d bc 0b 1a 01 3e
       -0.06884294 0.025871266 -0.019168032 0.12607591
000170 dd 25 31 3e af af 2e 3e c9 68 00 3e a8 dd 6d 3e
       0.172996 0.17059205 0.12539972 0.23229086
000180 73 cc e7 3d 1e 73 0e 3e 63 94 06 3e 0a 51 ab bd
       0.113182925 0.13911101 0.13142543 -0.08365066
000190 4f 15 bb 3d 95 8f 8f 3d 68 a7 d8 bd 05 32 eb 3b
       0.09134924 0.07009808 -0.10578805 0.0071775937
0001a0 5d bc 4c 3e 68 0a 43 bd aa 99 e0 3c c7 ba 5e 3d
       0.1999373 -0.047617346 0.027417023 0.054377344
0001b0 4c 7e 8a be 1f 38 75 be e6 ab 8a 3c ff 39 24 be
       -0.27049482 -0.2394719 0.01692767 -0.16037749
0001c0 d6 db 70 bd 2a 7a 8e bd 64 32 4b be 41 98 a4 bd
       -0.058803402 -0.06956895 -0.19843441 -0.08036853
0001d0 47 f8 8b 3d 1a 30 ca 3b 1e c5 95 3e 4f 71 b0 3e
       0.068344645 0.006170285 0.2925195 0.34461448
0001e0 74 6e b7 3e 7d e5 4d 3e da df ad 3e a2 3c 93 3e
       0.35826457 0.20107074 0.33959848 0.28757197
0001f0 5b f1 34 3e 9e 4f 01 3e 85 42 d9 3d f7 96 f9 bd
       0.17670195 0.12628028 0.10608391 -0.121869974
000200 61 53 88 be 69 d9 28 3d 10 f4 99 bd 90 20 85 be
       -0.26626113 0.041222963 -0.07517254 -0.26001406
000210 39 42 1a be 2d d1 04 be 57 62 6d be c8 3f 21 be
       -0.15064324 -0.12970419 -0.23182045 -0.15746987
000220 00 4c 01 be ed e4 d3 3d ba 58 e0 bd eb 5c a2 3e
       -0.12626648 0.103463985 -0.10954423 0.31711516
000230 0b 23 49 be bb 13 16 3e 06 2c 4c bc bd 00 94 3d
       -0.19642274 0.14655964 -0.012461668 0.07226703
000240 fb a0 53 3e 38 67 82 3d 15 2e 1e be 23 f3 09 be
       0.20666878 0.06367344 -0.15447266 -0.13471656
000250 de 31 2c 3e 23 89 5c bd df af 92 bc 82 89 89 be
       0.16815898 -0.05384172 -0.017906127 -0.26862723
000260 7c 1b 37 3e cc 76 c3 3e 0e de 86 3d 0a 2f 63 3d
       0.17881578 0.38176572 0.06585322 0.05546478
000270 9b 62 82 be 54 f6 21 be 3f ef 2b 3e 34 f1 0d bd
       -0.25465855 -0.15816623 0.16790484 -0.034653857
000280 40 14 f7 bd 75 25 0e 3e 3a af b7 3d 5b b9 b5 3d
       -0.12064409 0.13881476 0.08968969 0.088732444
000290 56 52 77 be 36 30 97 3e 3d fd d3 3d a8 26 4b be
       -0.24152502 0.2952897 0.10351036 -0.19838965
0002a0 cc 24 99 3d 73 24 2d 3e f6 51 45 bd c2 90 8d 3e
       0.074777216 0.16908436 -0.048173867 0.27649504
0002b0 92 7d 92 3d c9 be 94 bb 56 97 bc 3d 13 15 96 3d
       0.07152857 -0.004539345 0.092085525 0.07328238
0002c0 a6 86 00 3e e3 91 0d 3e 1b 51 13 3d 0d a4 9b 3b
       0.12551364 0.13825183 0.03596602 0.004749781
0002d0 a1 52 12 be 76 73 91 be c0 c3 9e 3e cd c3 af be
       -0.14289333 -0.28408402 0.3100872 -0.34329072
0002e0 51 27 d1 bd 39 a7 a2 bb bb c2 7c be ef ce 74 be
       -0.10212577 -0.004963782 -0.24683659 -0.23907064
0002f0 30 7c 1d bc 01 ab 66 3e 42 39 43 3d a4 9c a0 bd
       -0.009612128 0.2252617 0.047662027 -0.07842377
000300 9c 88 a6 bd 51 e3 8f bd df 7e 08 be a9 bd 05 be
       -0.08131525 -0.07025779 -0.13329647 -0.13060631
000310 46 9a 22 be 11 80 7c bd 56 4f 1d be df 35 6a be
       -0.15879163 -0.06164557 -0.15362296 -0.22872113
000320 41 5d 04 be ca 0f fe 3c 44 7d 8f be 9d 3f 97 bd
       -0.12926199 0.031013388 -0.28025258 -0.0738518
000330 32 b8 05 be f0 a2 dd bd 39 2b 04 be 16 87 e0 bd
       -0.13058546 -0.108220935 -0.12907113 -0.109632656
000340 8a 29 b7 3d b9 3e 09 3e cf 7f ad bc 90 f9 3b 3e
       0.0894347 0.13402833 -0.021179108 0.1835692
000350 2b 09 c2 3d f3 50 30 3d f3 b1 ca 3d d7 6b 00 3e
       0.09474405 0.04304595 0.09897222 0.12541138
000360 9e 34 93 be a4 a6 69 3c 9f 64 2f 3d ad 19 cf 3d
       -0.2875108 0.014260922 0.04282057 0.10112319
000370 3c 47 ac bd fb b7 63 bd 3e dd 10 be ef aa 10 3d
       -0.084120244 -0.05559538 -0.14146897 0.035319265
000380 f4 86 0c 3d 6b 81 51 3e e7 c4 b9 3d 76 84 56 be
       0.03430839 0.20459525 0.09070759 -0.20948967
000390 90 b7 4b bc 56 0a a8 3e 36 30 d2 3c 82 e3 5f be
       -0.012433901 0.32820386 0.025657754 -0.21864131
0003a0 24 62 8a bd fc e1 00 3e 76 b5 a9 3e ee cc 74 3a
       -0.06757 0.12586206 0.33146256 0.0009338398
0003b0 d2 18 ed be f8 15 2b 3d 29 9a 83 3e 56 dd b9 be
       -0.46308 0.041768998 0.25703552 -0.36301678
0003c0 8f 65 4c 3d e3 1b 20 3e bb 1f f4 bc f7 cd eb bd
       0.04990154 0.15635638 -0.029800287 -0.11513894
0003d0 38 3e fb bd f4 e6 97 3c ad fb 27 3e 8a fa 87 3e
       -0.12267727 0.018542744 0.164046 0.26558334
0003e0 e4 18 f3 3b 0e 39 0f 3d 6d 92 0a be 1f 0d c5 3d
       0.0074187387 0.03496652 -0.1353242 0.09621643
0003f0 63 e6 7e be d2 13 8d be 4b e3 be bc 6b 08 e4 3e
       -0.24892573 -0.27554184 -0.023301741 0.44537672

f1.0.bias f4 [10]
000000 a3 94 95 3a 1b eb 7b 3e 81 01 c9 3c 05 f6 10 3e
       0.0011412095 0.24601404 0.02453685 0.14156349
000010 68 e2 8a 3e 7c 94 ef bd e2 bd 58 3e 05 b8 ef 3c
       0.2712586 -0.11698243 0.21166185 0.029262552
000020 32 71 e4 3b 95 b7 83 bd
       0.0069715017 -0.064315

f1.3.weight f4 [16, 10, 3, 3]
000000 80 66 44 3e e8 b2 f5 3d c8 93 90 3d 3a 33 ec bd
       0.19179726 0.11997014 0.07059437 -0.11533208
000010 44 7c b2 bd 50 98 a0 3c ff 1a ea 3c 7b 21 4e 3d
       -0.08715108 0.019603878 0.028577326 0.0503249
000020 51 48 18 bd 11 43 2f 3d 88 fc f9 3d 67 2e 9b 3d
       -0.03717834 0.04278857 0.1220637 0.0757721
000030 f4 89 fa 3d 02 86 95 bd 0a b9 9f 3d fc 61 a6 bc
       0.12233344 -0.073009506 0.07798965 -0.020310394
000040 d4 38 07 3d 84 f2 9f bd 76 10 ba bd 7c 92 73 3e
       0.03301318 -0.07809928 -0.09085171 0.23786348
000050 6a f2 bd bd 01 4f 6b be ec 13 63 3e 26 a4 0c be
       -0.092747524 -0.22979356 0.22175568 -0.13734493
000060 dd b3 42 bd 06 d2 06 bd ba 54 b6 be 3c 17 95 3c
       -0.047534812 -0.032915138 -0.35611516 0.018199556
000070 b6 c0 e1 3d f4 7a 59 3e 22 60 47 3d 1c 15 d9 3c
       0.11023085 0.21238309 0.048675664 0.026499324
000080 91 e7 74 bd 4e ed f2 3c 32 c8 22 bc e1 a1 90 3a
       -0.05979115 0.029654171 -0.009935426 0.0011034572
000090 dc dc 95 3d dc bb 0c be 66 ab 4a be db 67 8e 3d
       0.07317516 -0.13743538 -0.19791946 0.069534026
0000a0 6b e5 7e be ce a3 44 be 28 60 49 bc 78 cf 55 bc
       -0.24892204 -0.19203112 -0.012290992 -0.013049953
0000b0 04 f1 40 3e 7b ce 83 be 2b a1 53 3d 44 15 5e 3d
       0.1884194 -0.2574347 0.051667374 0.0542195
0000c0 1c 6b 05 3d 17 71 5d 3e 8f 9d b8 bd e3 8a aa 3b
       0.03257285 0.21625172 -0.09014427 0.005204545
0000d0 3d bb ce 3c 2d 25 06 3e 9f 94 16 be 91 37 05 be
       0.025235767 0.13100119 -0.14705132 -0.13009478
0000e0 33 bf 87 be ee ca 23 bd 17 34 fa bd c2 28 c6 bd
       -0.2651306 -0.03998845 -0.122169666 -0.09675743
0000f0 68 d4 2e 3c 01 46 ef bd 8e 75 86 bd 86 18 35 bd
       0.010670759 -0.11683274 -0.065653905 -0.04421284
000100 70 42 51 be f0 9f 90 bd 4c bb 00 bd d9 0f 6a be
       -0.204355 -0.07061756 -0.03142862 -0.22857608
000110 f9 97 43 3d 0c 0e 8d 3d 0f 34 2d 3d d4 0e 76 3e
       0.047752354 0.06887445 0.042285975 0.24029094
000120 62 d8 aa bc ac 14 2a be 2c cc 92 3d 7c 65 8d 3d
       -0.020855132 -0.16609448 0.07167849 0.06904122
000130 69 e0 fa 3d 91 52 c2 3d 15 b2 b2 3b 37 ad fb 3c
       0.12249834 0.094884045 0.005453358 0.030722244
000140 58 05 ff 3d 3c bf 14 be 42 8c 5b 3d b5 4b eb bc
       0.12452191 -0.14526075 0.053600557 -0.028722623
000150 99 8e 6d be 4e 8d 3e 3d db 86 45 bc 3b c2 d4 bd
       -0.23198928 0.046521477 -0.012056078 -0.10388609
000160 53 5d ec 3d 7e a3 f8 3d 55 8e c0 3e 70 65 26 bb
       0.11541238 0.12140559 0.3760859 -0.0025390051
000170 e1 cd 6d bc 05 20 29 bd 2b 25 97 3d 8e b7 ec bd
       -0.014514417 -0.0412903 0.07380136 -0.11558448
000180 5c 5f 6e 3c da c1 d4 bd 73 14 38 be d7 0b a5 3d
       0.014549103 -0.10388537 -0.17976551 0.08058899
000190 04 da 6e bd 93 80 95 bb b8 7f 13 bd 2b 1f d5 3d
       -0.058313385 -0.0045624464 -0.036010474 0.104063354
0001a0 c3 92 df 3c 49 e2 a1 be a8 33 3d 3d 6c c9 96 3d
       0.027291661 -0.31617954 0.04619184 0.07362637
0001b0 a5 47 ab 3d 5f d3 cc bd 26 d0 3c 3d 81 cc 9c 3e
       0.083632745 -0.10001253 0.046096943 0.30624774
0001c0 a9 fb 0f be bd 7a 48 3e 2d e1 1f bc fa 4f 48 3d
       -0.14060844 0.19578071 -0.009758276 0.048904397
0001d0 16 e4 8f bd eb 48 d6 bd da b1 94 3e f5 7c be 3d
       -0.07025926 -0.10463127 0.2904194 0.093011774
0001e0 74 4e 80 3b f8 a8 1d 3e a8 37 13 3d 6f 88 07 3e
       0.0039156023 0.15396488 0.03594175 0.13235639
0001f0 73 78 96 3c 02 31 55 3d bf 44 7c 3e ef 08 88 3e
       0.018367982 0.05204869 0.246356 0.26569316
000200 41 dd a4 3e ad 01 46 3d aa 5b 6d bd 33 f2 f2 3c
       0.32200053 0.048341442 -0.057948746 0.029656505
000210 4e b0 5c be 6b aa b2 be 70 c2 b8 be 37 9c 10 be
       -0.2155163 -0.34895644 -0.36085844 -0.14122091
000220 b6 e4 cf bd ad a9 95 be b8 f5 e7 be d6 04 b9 be
       -0.10151045 -0.29231015 -0.45304656 -0.36136502
000230 d3 36 46 be c6 c4 e0 be 62 33 f4 bd fa 4b 87 be
       -0.19356851 -0.43900126 -0.11923863 -0.26425153
000240 ec 3a 0d 3c c5 f9 10 be 2a e5 63 bd 27 57 44 be
       0.008620005 -0.1415778 -0.05563847 -0.19173871
000250 03 17 5d 3d f4 dc 96 bd 25 7f 0f bf fc f8 e0 be
       0.053977024 -0.07366362 -0.5605338 -0.4393996
000260 24 31 e6 bd 91 50 3f 3d 06 16 72 bd 52 7d bd 3d
       -0.112398416 0.046707693 -0.059103034 0.092524186
000270 41 a8 3a bd ff ef 9f bc e0 80 6f ba 79 c8 4d bd
       -0.045570616 -0.019523619 -0.00091363303 -0.050240014
000280 f0 46 23 3e 8a 3f 1c be e1 5d a9 be 24 cb a6 bd
       0.1594503 -0.15258613 -0.33079436 -0.08144215
000290 64 77 33 bd fd c8 eb bd 43 c4 a9 bd 5d f4 06 bd
       -0.04381503 -0.11512945 -0.08289387 -0.032947887
0002a0 8b c4 d1 bd d5 53 19 3d ae 95 37 bc dc 69 be 3d
       -0.10242566 0.037433464 -0.01120512 0.09297535
0002b0 ae 8f 42 3d ab 91 ed bc d7 1c 1e bc 0a 20 ad 3c
       0.047500305 -0.029000124 -0.009650431 0.021133441
0002c0 a5 6b 5d bd c3 7d c4 bd d5 7f 1d 3e 33 53 04 3e
       -0.054057736 -0.095943 0.15380795 0.12922363
0002d0 2a 9b a2 be cb 16 16 be 51 fe 4c bd 3a 55 0a be
       -0.31759006 -0.14657132 -0.050047223 -0.13509074
0002e0 d3 0d 4c be b4 57 6e 3d d4 f9 c9 bd 8a 08 e6 bd
       -0.19927149 0.05818911 -0.09862104 -0.112320974
0002f0 c4 8f 4a bb ca 35 fe bd 03 a7 a2 3d 19 fe a6 3c
       -0.0030908445 -0.12412603 0.07942011 0.020384835
000300 f2 e1 73 be d5 76 c3 bd 9f 2a cd 3c f7 55 b8 bd
       -0.2381666 -0.0954415 0.025044737 -0.090007715
000310 08 57 2b 3e f7 b8 a1 3d 7c 68 b2 3e 89 43 db bc
       0.16732419 0.07896607 0.3484534 -0.026765602
000320 12 31 75 be 2d e9 43 3e 94 02 4b 3d 66 ad c6 bd
       -0.239445 0.19131918 0.049563006 -0.09701042
000330 92 2c 3d 3e 2b f3 65 3d aa b2 22 3d 20 a7 10 3e
       0.18474033 0.056140106 0.03972117 0.14126253
000340 a7 2f c4 3b c5 bb 9f 3d 0a 2e 70 bd b0 24 1f bc
       0.005987126 0.07799486 -0.058637656 -0.009713337
000350 4d f4 f3 3d 44 96 51 bd c3 76 a8 3c e2 c4 44 bd
       0.11911831 -0.051168695 0.020564443 -0.048039325
000360 d6 fa 2a be 4d cb 38 3e 80 bc 0e 3e 71 fb 43 be
       -0.16697249 0.18046303 0.13939095 -0.19138886
000370 cf 03 47 3e 95 88 e6 bc 2a c0 ed 3d 99 3a d3 3d
       0.19435047 -0.0281413 0.11608918 0.10313911
000380 2b a5 6c bd 8d 22 09 be 3d 39 d1 bd 20 97 ef bd
       -0.057774704 -0.13392086 -0.102159955 -0.11698747
000390 46 5f 19 3e 16 d3 ef bd 7a b7 11 be 4d c2 a2 bd
       0.1497775 -0.11710183 -0.14230147 -0.07947216
0003a0 bc b4 53 3d 8f 73 d6 3c ee d6 cc be 8e c5 1c be
       0.051686034 0.02617815 -0.40007728 -0.15309736
0003b0 08 e1 80 3d 4d 33 db bd 65 66 73 be ff 3a b9 bd
       0.06292921 -0.10703144 -0.23769529 -0.09044456
0003c0 16 da d1 3d f3 86 70 3e 1a 5b 0c be d9 2f ab bd
       0.10246675 0.23488979 -0.13706627 -0.083587356
0003d0 99 2a 2e 3d 13 4f 25 be a7 24 15 be 5c f5 00 3d
       0.042521093 -0.16143446 -0.14564763 0.031483993
0003e0 5b 8c f7 3c b7 25 04 3d 79 ca 02 3e 15 1a f1 3d
       0.030218294 0.03226253 0.1277255 0.11772553
0003f0 31 14 88 be de a6 72 3c 5d 3c 5c 3d 38 4f 04 be
       -0.26577905 0.014810292 0.053768504 -0.12920845

f1.3.bias f4 [16]
000000 f1 c6 d6 3d 45 51 72 3e 38 e9 a4 3d 00 2e 0d be
       0.10487164 0.23663814 0.080522954 -0.13787079
000010 61 7c 6a 3d c5 07 f3 bc a4 4b 25 3e 36 5b f2 3d
       0.057247523 -0.02966679 0.16142136 0.11833803
000020 58 8a d8 3d fe fa b3 bd 79 98 fe bd 44 95 15 3e
       0.10573262 -0.08788107 -0.124314256 0.14607722
000030 ff a7 cc 3e fe f7 de 3c c5 dc 63 3e dc a1 27 3e
       0.3997192 0.027217861 0.22252186 0.16370338

f1.5.weight f4 [32, 16, 3, 3]
000000 e4 15 e3 bd 0f ac 64 3e 4e 1d b0 bd e7 c5 9d bd
       -0.1108816 0.2233126 -0.085993394 -0.077037625
000010 20 1e 29 3e ad a9 ef bd df f4 50 bd 97 1c e9 bb
       0.16515398 -0.11702285 -0.051014777 -0.007114004
000020 d7 32 00 be 49 f5 af bd 44 95 f7 bd 46 5c e4 3d
       -0.12519394 -0.08591706 -0.12089017 0.11150412
000030 04 74 24 3e 80 3f c8 bc 40 a8 45 3e 24 64 ee 3d
       0.16059881 -0.024444342 0.19302464 0.11640194
000040 8b e6 44 3e 48 fa 7c 3e 8e c1 51 3e 4c c4 bf 3d
       0.1922857 0.2470485 0.20483992 0.093636125
000050 00 9a d1 bd 1b a8 99 3d 0f 35 7c 3e 9d f5 50 3d
       -0.10234451 0.07502767 0.24629615 0.051015485
000060 43 e2 0c 3e 3c 52 b8 3d 0e fe ec 3c de df 93 bd
       0.13758187 0.0900006 0.028929736 -0.07220434
000070 8c db 4e bc bb 25 0b bd 26 61 d8 bd d3 57 07 3c
       -0.012625586 -0.03397153 -0.105654046 0.008260685
000080 9b cc 28 bd 5c 33 2b bd ba e7 12 bd 2f 6d 63 bd
       -0.041210752 -0.041797027 -0.035865523 -0.055524047
000090 bb 18 23 3c ff c8 83 3d 93 54 70 3e 63 11 35 bd
       0.009954627 0.06434821 0.23469763 -0.044206034
0000a0 ee 0a 61 3d 52 98 25 3e 53 bb c4 bd d3 21 29 3e
       0.054942064 0.16171387 -0.09606042 0.16516809
0000b0 ed eb 02 3e d0 ab de bd 48 32 67 3c 55 e1 23 be
       0.12785311 -0.108726144 0.014111109 -0.16003926
0000c0 c1 dd 57 be a9 c6 1b be e8 e3 38 be 0a d9 c7 bc
       -0.21080686 -0.15212502 -0.1805569 -0.024395484
0000d0 43 6b 16 be d1 cf 17 be e8 05 69 bd 25 a6 7b 3e
       -0.14689355 -0.1482537 -0.0568904 0.24575098
0000e0 8d a9 dc 3c 45 e6 00 3d f7 b2 45 3d 67 30 51 3e
       0.026936317 0.031469602 0.048266377 0.2042862
0000f0 80 66 be 3c e3 dd 25 bc 2d 26 f3 bd cc fd d4 bd
       0.023242235 -0.010123703 -0.11872516 -0.103999704
000100 3c fe 02 3e 26 ce c6 bd 9a bb e0 bb 99 10 23 3d
       0.12792295 -0.097072884 -0.0068583013 0.03981075
000110 4f 1f de bc b0 b1 d7 bd 18 85 23 3d 08 d1 23 bc
       -0.027114538 -0.10531938 0.03992185 -0.009998567
000120 5b 96 48 bd 75 91 d2 bd aa 91 92 3e 1d 70 aa bc
       -0.048971515 -0.1028165 0.28626758 -0.020805413
000130 e6 02 2c 3e c6 4c 7c 3e f2 2b 57 3e ff ed 93 3e
       0.1679798 0.24638662 0.21012858 0.28892514
000140 72 36 25 3e 64 98 9c 3e 20 42 fe 3d f5 06 f5 3d
       0.1613405 0.30585015 0.12414956 0.119642176
000150 a0 b3 82 3d 81 9d bb 3d a7 4e 23 3e 70 05 0e 3d
       0.06381917 0.09160901 0.15947972 0.034673154
000160 2c 22 41 3d 14 8b 8d bd 48 ec 90 bd 0d 24 c7 bd
       0.04715173 -0.06911293 -0.07076317 -0.09723673
000170 f2 ee e2 3d b3 cd 47 bd ec b5 5e bd 7c e5 c3 bc
       0.110807315 -0.048780154 -0.054372713 -0.023913138
000180 8b 3e b4 ba 48 c1 3d bc bf 22 ba 3c 38 ea 6f 3e
       -0.0013751549 -0.011581726 0.022721646 0.23429191
000190 69 1e 9a 3e b0 6c 48 3e 4d 3e cb 3d 91 14 48 3e
       0.30101326 0.19572711 0.09923992 0.19539095
0001a0 b5 e2 23 3e 60 ce 1d 3e f4 df ea 3d 76 2e dc 3d
       0.1600445 0.15410757 0.11468497 0.10751049
0001b0 88 f4 8f 3e 05 a1 f5 bd 4a da e5 bb 5a 91 d8 3c
       0.2811625 -0.11993603 -0.0070145475 0.026436497
0001c0 19 d2 07 bd 2c ed 6e bd 07 dc 87 3d 08 c4 bc bd
       -0.03315935 -0.058331653 0.06633764 -0.092170775
0001d0 75 14 8d 3d ac 83 9a bd c0 3f 48 be 88 66 4e 3d
       0.068886675 -0.07544646 -0.19555569 0.05039075
0001e0 93 ff 69 bd 9a 70 16 be 54 69 c5 bb 57 c3 e1 bd
       -0.0571285 -0.14691392 -0.006024519 -0.11023586
0001f0 fc 58 a6 bd 23 97 82 3d 14 6b f3 bd c2 9f 72 bd
       -0.08122441 0.06376483 -0.11885658 -0.05923439
000200 0c b8 60 bd 3a 1e a3 3d e4 89 84 bc a0 e8 1e bd
       -0.05486302 0.0796475 -0.016179033 -0.038796067
000210 e4 62 bf 3d 2e ef e5 3d fe 2b 5d 3d 14 a4 59 3e
       0.09345034 0.112272605 0.053997032 0.21253997
000220 38 05 7f 3e cc f7 81 3e bb a5 2b 3e e5 80 a2 3e
       0.24904335 0.25384367 0.1676244 0.31738964
000230 f7 d5 2e bd c4 0a 53 bb 8b bd 03 3d 8e b0 e4 bd
       -0.04268452 -0.0032202462 0.032163184 -0.11166488
000240 a7 52 19 be 20 63 f6 bd 10 db cf bd c3 80 95 bd
       -0.14972936 -0.12030625 -0.10149205 -0.0729995
000250 35 32 8f be a4 38 78 bd b1 42 fa 3d 85 07 1d 3e
       -0.27967992 -0.06060089 0.122197516 0.153349
000260 12 c4 69 3e f3 c2 d6 3c 2f 34 9f 3d ad df 51 3d
       0.22828701 0.026216006 0.07773625 0.051238704
000270 ff d7 80 3e a7 cf d8 3b 49 96 a0 bd 47 8e 53 be
       0.25164792 0.006616551 -0.078411646 -0.20659743
000280 70 1b 83 3b a9 00 88 be ca 0d d2 bd cc 81 80 bc
       0.0040010735 -0.26563004 -0.10256536 -0.015686892
000290 b3 c0 29 3e d8 ef a1 bd 57 17 ad bb 2f 01 43 be
       0.16577415 -0.07907075 -0.0052823233 -0.1904342
0002a0 51 fc ad be 9a 92 9b bd 77 76 28 be 2e 77 45 38
       -0.33981565 -0.075963214 -0.16451441 4.7079455e-05
0002b0 f1 71 bb 3c ae 60 a1 bd 11 a5 a0 3d 9e a7 89 bc
       0.02288148 -0.07879768 0.07843984 -0.016803559
0002c0 bf ad a7 bd a7 56 47 bc 67 d5 25 3d ce e1 85 3d
       -0.08187436 -0.012166656 0.04048672 0.065372095
0002d0 ef 5c cc bd 0d 53 12 be d8 1b 40 3e 0c cc 58 bc
       -0.09978663 -0.14289494 0.18760622 -0.013232242
0002e0 5f c9 a4 bd 78 41 3c bc 13 25 49 3e 18 68 07 3e
       -0.08046221 -0.011490218 0.19643049 0.13223302
0002f0 f3 90 07 be 25 91 95 bd c7 1c 2d be 65 9a 1a be
       -0.13238887 -0.07303075 -0.16905509 -0.1509796
000300 bd d8 a5 3e ad 04 0c bd 33 f0 57 bc 86 a7 42 3e
       0.3239192 -0.034184147 -0.013179827 0.19009218
000310 fb cb 39 3e d9 6e 52 3d c7 04 ba bb c7 3a 16 3e
       0.18144219 0.051375244 -0.005676839 0.1467086
000320 67 43 fc 3d c3 79 61 be 87 7b 71 bd 64 73 12 be
       0.123175435 -0.22019105 -0.058955695 -0.1430183
000330 6b ff e4 bd 15 a0 c3 bd f5 57 a6 3d 35 ec b4 3c
       -0.111815296 -0.095520176 0.08122245 0.022085289
000340 9e 46 fa 3d ed 19 41 3c 2c 5b 8e 3d a9 13 50 bd
       0.122205004 0.011785966 0.069509834 -0.0508
000350 6a 64 51 bd d0 64 8e bd 87 af 13 3c 87 a7 69 3d
       -0.051121153 -0.06952822 0.009014017 0.057044532
000360 55 0d d8 3d 86 ba 14 3e e7 8d 07 3d a9 45 88 3d
       0.10549418 0.14524278 0.033094313 0.066539116
000370 ec 66 e6 3d cb b3 00 be 82 9f c1 3d d7 a8 2d bd
       0.112500995 -0.12568586 0.09454252 -0.042397346
000380 94 d8 61 be 07 73 75 bd 0b c7 c4 be 1a b0 0d bd
       -0.22055274 -0.05992415 -0.38433108 -0.03459177
000390 2e 81 0f be 7a dc 82 be 6b 0e 9b bd 9a a6 a2 3c
       -0.14014122 -0.25558835 -0.075711094 0.019854832
0003a0 62 c1 3b be ce 6a 90 bc 3a 64 01 3d fe 6a 15 3d
       -0.18335488 -0.017629053 0.031589724 0.03647899
0003b0 4e 8b 15 3e 1f 9c 9d 3d 9b df 92 bd 24 40 d0 3c
       0.14603922 0.07695793 -0.071715556 0.02542121
0003c0 fd 2b 8b bd ed 06 b8 3d 78 a9 ea 3c f8 27 a9 bd
       -0.067954995 0.08985696 0.028645262 -0.082595766
0003d0 b0 0d 48 be cc 3d 3c 3d ae be 63 bd 11 0c 9b be
       -0.19536471 0.04595737 -0.05560177 -0.30282643
0003e0 57 06 2a be 42 f0 7d be e0 b4 fc be 9f 22 56 be
       -0.16603981 -0.24798682 -0.49356747 -0.20911644
0003f0 5d 4d aa bd b1 a6 a4 bd 31 5d d0 3d 13 97 8b be
       -0.08315537 -0.08039606 0.10174025 -0.27263698

f1.5.bias f4 [32]
000000 c9 09 8f 3d ff 71 2d 3e b4 47 0b bd 5c af 8a 3d
       0.06984288 0.16938017 -0.03400393 0.067717284
000010 5c 5d 8a 3e bd 8f e9 3b 01 f6 c0 3d 2e 00 b9 3d
       0.27024353 0.0071277306 0.094219215 0.090332374
000020 c1 87 f0 bd 1e 98 17 3e c2 05 d0 3d 53 98 52 38
       -0.11744643 0.14804122 0.10157348 5.0209765e-05
000030 78 05 06 3e 05 5f 3c bc fc 34 b0 bc fb 59 cb 3d
       0.13088024 -0.011497264 -0.02150964 0.09929272
000040 f5 4b d8 3d 2c bd 5e 3e 2f a6 6f 3d 0f 7e 87 3c
       0.10561363 0.21751851 0.058508094 0.016539602
000050 57 c4 56 3d c6 69 30 bd 34 92 35 bd 08 e2 7b be
       0.052433338 -0.043069623 -0.044328883 -0.24597943
000060 97 73 37 3e 06 2f c7 bd 66 f7 c1 3d 80 38 87 3d
       0.17915188 -0.09725766 0.09471016 0.066025734
000070 ed ca f7 3e 52 e4 03 3f 27 4c b8 3c b6 b0 9d bd
       0.48397008 0.51520264 0.02249725 -0.076997206

classifier.weight f4 [2, 32, 1, 1]
000000 e2 a3 e7 3e 34 9f 2a bf 8e b5 7e bf 6c ec 3e bf
       0.4524222 -0.66649175 -0.9949578 -0.745795
000010 57 7f 92 3d 4e 56 d4 be 33 b1 1a bf cd a1 53 3d
       0.071531944 -0.41472095 -0.60426635 0.051667977
000020 a2 94 f6 3a ac 7a 72 3f b9 9f 0a 3f 62 d4 24 3f
       0.0018812607 0.9471843 0.5414997 0.6438657
000030 18 93 0a 3f b6 05 98 3e 1f 9c 24 bf a4 41 66 bf
       0.541307 0.29691857 -0.6430072 -0.8994391
000040 72 7d 21 3f 3c 1d a0 3e fa 0f 54 be 76 a4 01 bf
       0.6308204 0.31272304 -0.2070922 -0.5064157
000050 34 0a cc 3e 24 57 e0 be 21 cc fb bd 62 f9 1c 3f
       0.39851534 -0.43816483 -0.12294794 0.6131803
000060 32 0d 23 3f 0d 81 2a be b5 10 fb be 1b 30 13 bf
       0.6369201 -0.16650791 -0.49036184 -0.5749528
000070 4c 81 98 bd 6c 62 5c bd 0b 49 ce 3e ce 6c 7d bf
       -0.074465364 -0.0538048 0.40290102 -0.9899415
000080 b4 5a bb be 17 f8 32 3f 9c 8b 41 3f bc ad 46 3f
       -0.36592638 0.69909805 0.7560365 0.7760885
000090 a2 6e 5f be 6d b7 fa 3e 2f 65 b6 3e c0 da a0 be
       -0.21819547 0.48968068 0.35624072 -0.31416893
0000a0 06 31 b9 3d e5 6d 51 bf 3f 44 43 bf 2c ea 3a bf
       0.090425536 -0.8180831 -0.7627601 -0.7301357
0000b0 08 1d 2f bf 0a 5b c4 be ab e5 24 3f c6 a9 34 3f
       -0.68403673 -0.38350707 0.64412946 0.70571554
0000c0 62 58 f6 be 66 ec db be 2a b0 c6 3e 35 7d e8 3e
       -0.48114306 -0.42953795 0.38806278 0.45408025
0000d0 ff 8f 00 bf 5f b4 dc 3e 54 f8 07 3d 14 ca db be
       -0.5021972 0.43106362 0.03319581 -0.4292761
0000e0 47 23 00 bf bc e8 1d 3e c2 81 0c 3f 1a 79 30 3f
       -0.5005383 0.15420812 0.54885495 0.68934786
0000f0 c7 39 35 3e 81 8e 11 3e 2f 26 a0 be dc 83 4f 3f
       0.17697822 0.14214517 -0.31279132 0.81060576

classifier.bias f4 [2]
000000 d8 bb 1c be 52 a2 0c 3d
       -0.15306032 0.03433449

bbox_reg.weight f4 [4, 32, 1, 1]
000000 05 34 00 3e 1e f6 35 3c 17 60 d2 bc 31 a0 76 bc
       0.12519844 0.011106042 -0.025680585 -0.015052841
000010 70 68 be bd 00 60 50 bd 7a 1f 1c bd d4 05 1f 3d
       -0.092972636 -0.050872803 -0.038115956 0.038823918
000020 c5 6b 8a bc 4a 9f b9 3c 94 c5 20 3b 60 7b 36 bc
       -0.016897092 0.022658963 0.0024531828 -0.011137813
000030 8e 50 41 bd 7e 1c a9 bd 1b de 08 3c ed 50 66 bd
       -0.047195964 -0.082573876 0.008353735 -0.05622952
000040 84 10 a1 bc 71 1e b9 3d fb 01 97 3d b6 ad 56 3b
       -0.019661196 0.09039009 0.073734246 0.0032757348
000050 1d af 01 3d 99 71 28 3d d2 ff 89 bc 1c 34 b3 3d
       0.03166114 0.04112396 -0.016845617 0.087501734
000060 fd 4e 84 3d 2a 7e 03 3c a1 71 af bd 96 04 f2 bb
       0.06460378 0.008025685 -0.08566595 -0.0073858006
000070 d3 a0 83 bd 91 be 03 3d 77 5b c8 3d 9c d4 f2 bb
       -0.06427159 0.03216416 0.097830705 -0.007410599
000080 3e 1d d1 3c be 26 33 3c f6 60 8f ba 41 dd 77 bc
       0.02552664 0.01093453 -0.0010938931 -0.015128435
000090 03 e0 1a be b6 52 df 3c 9e b8 29 3d 6f 10 fa bd
       -0.15124516 0.02726112 0.04143583 -0.12210166
0000a0 40 3c 04 3e 5b ce 25 3c 99 14 95 bb 4f 9b 1d 3b
       0.12913609 0.01012 -0.0045495746 0.002404887
0000b0 fd 48 29 bb 38 c0 1e 3d e8 0c 6f 3d 0f 5c 3a bd
       -0.0025830858 0.038757533 0.058361918 -0.04549795
0000c0 94 bd 9e 3b 06 89 fe bc 90 71 25 3d dc d5 5e bc
       0.004844377 -0.031071197 0.040391505 -0.013600793
0000d0 be 7d 5f bc d3 e8 67 bd 80 83 63 3e 5b 68 23 3d
       -0.013640819 -0.056618523 0.22218132 0.039894443
0000e0 81 d4 a7 bc bc 2d 9d bd bf ad 89 bd 53 ee 04 bc
       -0.020487072 -0.07674739 -0.067225926 -0.008113462
0000f0 25 e8 53 be c4 d2 04 be e4 43 44 3e 2c 69 d9 3c
       -0.20694025 -0.12971026 0.19166523 0.026539408
000100 32 1d 13 3e ba 76 07 bd fc e4 78 bc 63 bc e9 bd
       0.14366606 -0.03307221 -0.015191313 -0.11412885
000110 3a e6 d3 3b ac 5f eb bc b3 7f 93 bd 5c eb 8d 3d
       0.006466654 -0.028732143 -0.07202091 0.06929657
000120 39 9e bc bc 4b 86 6a 3d 7e f6 15 3c 46 70 f2 bb
       -0.023024665 0.057256978 0.009153007 -0.007398638
000130 a8 30 9c bc d9 32 1c be 0b 86 a5 3d 15 4d c0 bc
       -0.01906617 -0.15253772 0.08082207 -0.023474256
000140 ce ff fb bb e5 bd 8d 3d 4f e9 8d 3d c6 a6 94 bd
       -0.0076904064 0.06920985 0.06929266 -0.07258372
000150 9b 72 29 3d bd 79 66 3d 03 91 47 bd 70 c8 0c 3e
       0.041369062 0.056268442 -0.04872228 0.13748336
000160 52 7e cf 3d 07 77 bf 3c 8c 06 98 bd 22 b0 3e bd
       0.101315156 0.023372186 -0.07423124 -0.046554692
000170 76 c1 aa bd ec 4c 90 3d a4 2d ff 3d 6b a4 28 3b
       -0.08337681 0.07045922 0.12459877 0.0025732766
000180 35 ff d3 3d a8 1b 5a bd 34 16 60 bc dc 60 22 bc
       0.10351411 -0.05324903 -0.013677169 -0.009910788
000190 8b 9a 0a 3e bb 3b a2 3d 68 d9 be 3b e7 a3 0c bd
       0.13535516 0.07921549 0.0058242567 -0.034335997
0001a0 14 e2 88 ba 1a 14 a9 3d d9 9c 8a 3c b5 ed 75 3b
       -0.0010443353 0.08255787 0.016920494 0.0037525718
0001b0 36 4e e7 3c c4 87 26 3c 87 45 41 bd 23 5f 9e bd
       0.028235536 0.010164205 -0.047185447 -0.0773299
0001c0 e5 20 00 3c f8 be ac bd 4b f4 05 be 23 46 9d bc
       0.007820343 -0.08434862 -0.13081472 -0.019198483
0001d0 7c 90 80 bd 63 37 0d 3c 56 90 9f 3d 63 a6 17 3e
       -0.06277558 0.008619162 0.07791202 0.14809565
0001e0 c4 c1 45 3d 37 24 2d 3d e5 cb c4 bd 25 15 83 3b
       0.048280492 0.042270865 -0.09609202 0.0040003234
0001f0 3f 2f 33 be e2 53 2a 3e 2c 98 83 3e fe 50 a9 3b
       -0.17498492 0.16633561 0.25702035 0.0051671257

bbox_reg.bias f4 [4]
000000 0e ad 6d be 0a 0f 4c be 8f c2 8a be 5d 40 00 be
       -0.23210546 -0.19927612 -0.2710156 -0.12524553

landmark_reg.weight f4 [10, 32, 1, 1]
000000 fa 6f 90 3c ae 9f 58 3c fb 4e 80 bc b4 46 61 bc
       0.01763152 0.013221664 -0.01566266 -0.013749767
000010 6b 22 4e 3c dd c5 3c bd 52 7f 76 3a 48 85 f0 bb
       0.012581448 -0.046087135 0.00094031275 -0.007340107
000020 45 9b 70 bd dc 73 4d bb 11 17 3c bb e9 d6 bd 3b
       -0.058741827 -0.0031349575 -0.0028700272 0.0057934416
000030 f6 bf a7 bb d0 4b a8 bd 48 86 f7 3c 74 75 ed bb
       -0.005119319 -0.08217585 0.030215397 -0.0072466675
000040 f7 d8 0a bc 5f 29 ff 3d c8 4a 14 3e 92 f9 ae bc
       -0.00847458 0.12459063 0.14481652 -0.021359239
000050 c7 e6 a0 3c 00 e3 d5 bc 9b aa 10 3d 89 2e da 3a
       0.019641293 -0.026109219 0.035318952 0.0016645949
000060 4b 85 78 3b 78 6e 76 bd 64 4f 49 bc 98 2a 58 bc
       0.0037921246 -0.060163945 -0.012286995 -0.013193749
000070 34 3c c7 3d 00 33 98 3c 76 97 0d bb 3a 1f 08 bb
       0.0972828 0.018579006 -0.002160517 -0.0020770566
000080 dc 2e cb 3a d9 eb 5e 3b 91 33 51 bc 35 9b a6 3c
       0.0015501636 0.0034015088 -0.012768642 0.02033768
000090 30 a5 0c 3d 60 0d d5 bb ad 45 9f 3d 82 09 36 be
       0.034337223 -0.0065018386 0.077769615 -0.17777064
0000a0 14 5b d0 3d 0c e3 2b bc 42 78 cb 39 98 d4 3f 3b
       0.10173622 -0.010491144 0.00038808776 0.0029271003
0000b0 c2 9e 76 3b 81 9d 06 3d a5 e2 b1 bc a1 5b a5 3b
       0.0037631248 0.03286505 -0.021714518 0.0050463234
0000c0 a8 ce b0 3b 3a 7b 2e 3c 00 b0 e4 bb 4c 44 48 3c
       0.005395729 0.010649497 -0.0069789886 0.0122233145
0000d0 ac df 62 bc 69 76 a4 bc 0a 15 cb 3c fd f4 31 3b
       -0.013847273 -0.020075994 0.024790306 0.002715408
0000e0 4b 68 c6 bb 55 d1 4b bd da c9 22 3c 88 8d 00 bb
       -0.006054913 -0.04976018 0.0099358205 -0.001961561
0000f0 49 31 d2 3b 01 f1 76 3d 56 e8 22 3d 96 bc 16 3d
       0.0064145667 0.060288433 0.039772354 0.036800943
000100 75 95 cf 3c 2b 42 09 3c 27 dc cb 3a 57 dc 74 3a
       0.025339821 0.008377592 0.0015553281 0.00093406945
000110 ca cc 32 3e 7d 3a 6b bc 63 96 be 3a 5f 8c b8 3c
       0.17460933 -0.014357206 0.0014540668 0.022527872
000120 c8 1d 49 be 66 07 29 3c cf 8d 56 bc 35 a9 3a 3b
       -0.19640267 0.010316705 -0.013095333 0.0028482203
000130 84 b6 aa bc e6 48 c5 bd 66 24 8f bc 85 9a 92 bc
       -0.020838983 -0.09633045 -0.01747341 -0.017895946
000140 02 57 46 bc 93 4c 14 3e cb fe 87 3d 89 2c b4 bc
       -0.012105705 0.14482336 0.06640395 -0.021993892
000150 a5 ad da bc 1a fe a2 ba f8 e7 08 bd a9 1f e7 3c
       -0.026694128 -0.0012435347 -0.033424348 0.028213339
000160 e8 d8 7c 3b b5 aa 2c bd 80 d7 8c bc c7 d3 71 bb
       0.0038581435 -0.042154986 -0.017192602 -0.003689991
000170 3c a3 4c 3e 3c e2 49 3e 1f 16 70 b9 09 f4 db bb
       0.19984144 0.19715208 -0.00022896424 -0.006712441
000180 02 94 ff 3b cd 96 f9 bb 3d 6a 65 bc 0f 7b a7 3c
       0.0077996263 -0.007616854 -0.01400238 0.020444421
000190 69 9c 01 3e 4b 0f 5f bc 9e c1 b5 3d 66 6d 3f be
       0.12657322 -0.013614486 0.0887482 -0.18694076
0001a0 c3 90 0a bd fe 59 34 bc e1 37 44 3c d2 a3 58 3c
       -0.03382946 -0.011007784 0.011976213 0.013222652
0001b0 5f 67 3d 3c 0e 93 11 bc 75 e4 c7 bc 25 1e 92 3b
       0.01156029 -0.008885158 -0.024400929 0.00445916
0001c0 ab 70 c3 3b 9c 15 7b bb 71 fd 77 3d c8 5a 72 bc
       0.005964359 -0.003831244 0.060544435 -0.014792152
0001d0 5d c6 19 39 f9 61 a8 bc d3 4a f1 3d 71 da a9 ba
       0.00014665113 -0.02055453 0.1178185 -0.0012958777
0001e0 28 90 fb bb 9b 10 8e bc ae 66 4c 3c 5c 8e 23 3c
       -0.007677097 -0.017341902 0.012475653 0.009982672
0001f0 10 91 78 bc cf d3 2a bc ad cd 19 3d ca 8c 09 3d
       -0.015171304 -0.010426476 0.037549663 0.033581533
000200 d9 bc 09 3d 96 bf 51 3c 45 05 b7 bc cd 30 eb bc
       0.033627365 0.012802025 -0.02234138 -0.028709793
000210 a4 7b 40 3e 9c d5 9c bc 2b c8 31 bb 9b f7 47 3c
       0.18797165 -0.019144826 -0.0027127366 0.01220503
000220 b2 7d a9 bd 12 f1 ef 3b 5d 19 7d bc af e0 cf 3a
       -0.082759276 0.007322439 -0.015447942 0.0015859808
000230 2f 13 6b bc 89 77 df bd 39 fc 0d 3d 68 03 f7 bc
       -0.014347835 -0.109114714 0.034664366 -0.030152991
000240 9e 4c 29 bc f9 ec 6f 3e 33 bb 18 3e 41 a5 33 bc
       -0.010333208 0.23430242 0.14915161 -0.010964693
000250 c9 b8 b5 bd de 11 07 bd 02 3f c6 bd ff c5 e5 3c
       -0.088731356 -0.032976024 -0.096799865 0.028048513
000260 3d 38 84 3b fb c5 9e bd e4 b5 8d bb 87 7c 62 bc
       0.0040350244 -0.077526055 -0.0043246616 -0.013823635
000270 10 3a 2b 3e 81 a5 fd 3d 03 1c 75 bc 88 96 2e 3b
       0.16721368 0.12385083 -0.014960292 0.0026640017
000280 f2 20 0b 3c e8 f8 90 bc d1 34 cf bb 41 ca 90 3c
       0.0084917415 -0.017696813 -0.006323435 0.017674567
000290 42 20 11 3e c6 85 41 3c 46 42 b8 3d 3e 63 26 be
       0.14172462 0.011811679 0.08997016 -0.16248795
0002a0 84 2c b8 39 f2 a0 bf bb c2 c7 df 3b 53 99 a5 bb
       0.00035128382 -0.0058480436 0.006829233 -0.005053678
0002b0 34 00 55 3c 91 78 ee bb e0 99 15 bd 89 6e aa 3c
       0.013000537 -0.007277556 -0.0365237 0.02080466
0002c0 ae 96 32 3b 0e 18 c6 3a 63 93 88 3c d4 59 2d 3c
       0.0027250457 0.001511337 0.016671842 0.010580499
0002d0 ca d6 d1 bb 3a a6 11 bd 4a c5 82 3d 42 0f 3c 3c
       -0.0064037787 -0.035558917 0.06385286 0.011478247
0002e0 05 13 5c bc 9e c8 3a bd cc 37 01 3c be 5c a1 3a
       -0.013432269 -0.04560148 0.007886838 0.0012310965
0002f0 35 5e 10 3d a0 29 d1 3d b4 bb 2d 3d 12 b6 0b 3d
       0.035246093 0.102130175 0.042415336 0.034109183
000300 d6 7f c4 3b bb c0 cd 3c 02 a2 84 bc 2e ef 4a bb
       0.0059966845 0.025116315 -0.016190533 -0.0030965316
000310 b9 d6 bb bd 0f 09 22 bd a2 f0 b6 ba 1a c7 0c bb
       -0.091718145 -0.03955942 -0.0013957212 -0.0021480978
000320 64 bf df 3d 5b 51 9f bb 9b 00 40 bc 69 41 05 bc
       0.10925177 -0.0048619932 -0.011718894 -0.008133271
000330 42 72 8d bc 79 1b ea bc b8 fa 8b 3c d8 f9 ab bb
       -0.017266396 -0.028577553 0.017087325 -0.0052482896
000340 8f e5 e8 bb 0c 28 1c 3e 56 c4 a7 3d c1 5e e2 3b
       -0.0071074436 0.15249652 0.08191745 0.006908268
000350 b6 38 43 3c 85 69 e4 bc 44 5f a7 bd ce 59 30 3b
       0.011915376 -0.027882347 -0.08172467 0.0026908997
000360 89 ad 07 3c 88 04 9e bd f8 a0 b8 bb 9c ba d6 bc
       0.00828112 -0.07715708 -0.0056344233 -0.02621203
000370 63 8b 11 3e b8 a3 f1 3d a1 c6 26 bb 5f f6 90 39
       0.14213328 0.11798805 -0.0025447982 0.0002764938
000380 f2 81 2f 3b 2a 6b 14 bc 45 03 30 bc ea 23 1d 3d
       0.0026780334 -0.009058753 -0.010742967 0.03836433
000390 88 0c 27 3e 99 9f 51 3c 8f b6 a5 3d 79 63 28 be
       0.16313374 0.012794399 0.08091461 -0.16444196
0003a0 a5 5f 64 3c c6 29 27 bb 4f 4e 8e ba 8c 7a cd ba
       0.013938819 -0.0025507077 -0.0010857078 -0.0015676781
0003b0 29 d2 27 ba e6 ec 53 3d 67 09 8b bd b9 96 a4 3b
       -0.0006401861 0.051739596 -0.06788903 0.0050228504
0003c0 92 48 13 3c 70 d9 4d 3c 11 22 b8 bc 8a 4b 1b 3b
       0.00898947 0.012564048 -0.022477182 0.0023696148
0003d0 69 11 2e bd 28 87 77 bc 5e 9d d7 bc c8 3d 5a 3c
       -0.042497072 -0.015107907 -0.026320156 0.013320394
0003e0 11 21 9d bb 5e 6f b5 bc df 3b df 3c e9 f6 b9 38
       -0.0047952016 -0.02214783 0.027250228 8.867478e-05
0003f0 17 b6 b4 3d 26 83 45 3e 7e be 14 3d fb 56 05 3d
       0.088237934 0.1928831 0.03631448 0.032553654

landmark_reg.bias f4 [10]
000000 2c db 57 3e 67 b5 79 3e 12 31 c2 3e 18 f8 75 3e
       0.21079701 0.24385606 0.37928063 0.24020422
000010 86 5b 5a 3e ff 90 bc 3e d1 32 36 3e 81 ee de 3e
       0.21323976 0.36829373 0.17792822 0.4354134
000020 be 20 90 3e f3 bb 01 3f
       0.2814998 0.5067741
