Design/rnet.pth (torch, 410725 bytes, 14 tensors)

backbone.0.weight f4 [28, 3, 3, 3]
0	0x3d64930d	0.0558043
1	0xbd029089	-0.03187612
2	0xbe1a075c	-0.1504187
3	0xbe238aac	-0.15970868
4	0x3e1246e3	0.14284854
5	0xbe660b77	-0.22465311
6	0xbdefbf3d	-0.11706398
7	0x3e44ca83	0.19217877
8	0xbc0bc306	-0.008530384
9	0x3de0fb87	0.10985475
10	0x3de465ea	0.11152251
11	0xbd433da2	-0.0476662
12	0x3cb501a7	0.022095514
13	0x3e6609b8	0.22464645
14	0xbc8b63da	-0.017015386
15	0xbda210ef	-0.07913386
16	0x3e14c731	0.1452911
17	0xbe6954ce	-0.22786257
18	0x3e2e0019	0.16992225
19	0x3dd776d4	0.105207115
20	0xbe4cc0b8	-0.19995391
21	0xbe17f3f6	-0.14839157
22	0xbd2e3a37	-0.042535987
23	0xbe6672f6	-0.22504792
24	0x3dd6e3f9	0.10492701
25	0xbc083e63	-0.008315655
26	0x3d68b4c8	0.05681303
27	0x3e0c5ecc	0.13708037
28	0x3de93139	0.113863416
29	0x3da91fc4	0.08258012
30	0x3db880fd	0.090089776
31	0x3e0af8bf	0.13571452
32	0xbd8afae2	-0.06786133
33	0xbc07fce5	-0.008300041
34	0x3ccd083f	0.025028346
35	0xbe2ba8e1	-0.16763641
36	0xbd6980e7	-0.057007696
37	0x3daedc83	0.08538153
38	0x3c869e58	0.016432926
39	0x3c57e4b3	0.013177085
40	0x3c663a26	0.01405195
41	0xbdc4480a	-0.09584053
42	0xbce96794	-0.028491773
43	0x3d747418	0.059681028
44	0xbe490485	-0.1963063
45	0xbe2e25a3	-0.17006545
46	0xbce03f8b	-0.02737405
47	0x3de5ce6a	0.11221011
48	0x3d0c4a69	0.03425065
49	0x3e1ef5fd	0.15523525
50	0x3e0f5bef	0.13999914
51	0x3db421a3	0.08795478
52	0x3d923d72	0.07140626
53	0xbcbde066	-0.02317829
54	0x3d3c630e	0.045992903
55	0xbe2355be	-0.15950677
56	0x3db8652a	0.090036705
57	0x3cc990c8	0.02460517
58	0xbe2d0cca	-0.1689941
59	0x3d21bc80	0.03948641
60	0xbcbcdbbe	-0.023054
61	0xbdbf69af	-0.093463294
62	0x3e25f0ec	0.16205186
63	0x3d0b7dc2	0.03405548
64	0x3e509684	0.20369917
65	0xbe163fc8	-0.14672768
66	0x3ddd91b7	0.108188085
67	0xbd042494	-0.032261446
68	0xbe059dd0	-0.13048482
69	0x3e4b8140	0.19873524
70	0xbde1526b	-0.11002048
71	0x3d0dd7be	0.034629576
72	0x3e492194	0.19641715
73	0xbe236578	-0.15956676
74	0x3d61adb3	0.055097293
75	0x3e09ed3c	0.13469404
76	0xbe2635da	-0.1623148
77	0xbe007862	-0.12545922
78	0xbe11d198	-0.1424011
79	0xbe72152e	-0.23640892
80	0x3de2fd1e	0.110834345
81	0x3ddf9fef	0.10919177
82	0xbe2eee6c	-0.17083138
83	0x3de71cbb	0.11284777
84	0x3e28b76c	0.1647622
85	0x3e0f18ae	0.13974258
86	0x3cd05f9f	0.02543622
87	0xbdccd1b4	-0.10000935
88	0x3e340dcd	0.1758339
89	0x3e212bbb	0.15739338
90	0xbe12141c	-0.14265484
91	0xbe171781	-0.1475506
92	0xbe6974f4	-0.2279852
93	0xbc94b2c2	-0.018151645
94	0x3d8d6492	0.06903948
95	0x3d7a931a	0.061175443
96	0x3e435561	0.19075538
97	0x3dbf027a	0.09326644
98	0x3e63a231	0.2222984
99	0xbc3a72b9	-0.011379891
100	0xbd627cb8	-0.055294722
101	0xbdca1145	-0.09866575
102	0xbe3feb48	-0.18742096
103	0xbe39b798	-0.18136442
104	0xbce041e8	-0.027375177
105	0x3d3ead86	0.046552204
106	0xbc889612	-0.016673122
107	0x3e233909	0.15939726
108	0xbbaf0f4e	-0.0053424006
109	0xbdc8482b	-0.0977939
110	0xbc76a081	-0.015052916
111	0x3d8a4f72	0.06753434
112	0x3e7ec2ca	0.24878994
113	0x3de08268	0.10962373
114	0xbe108ab8	-0.14115417
115	0xb9ef13d2	-0.000456004
116	0xbe1eb290	-0.15497804
117	0x3d836228	0.06415206
118	0xbde0a0db	-0.10968181
119	0xbc6d5e55	-0.014487823
120	0xbd85fdea	-0.06542571
121	0x3e95db7b	0.29269013
122	0x3dac22fd	0.08405111
123	0xbe0eb153	-0.13934831
124	0xbdd7a760	-0.10529971
125	0xbde77e78	-0.11303419
126	0xbdcc6f37	-0.0998215
127	0xbe072a83	-0.1319981
128	0x3db51e47	0.088436656
129	0x3e204301	0.1565056
130	0xbb91f66b	-0.004454424
131	0x3e4a3765	0.19747694
132	0x3e3a7cbc	0.18211645
133	0xbe872aa5	-0.26399723
134	0xbe766f09	-0.24065794
135	0x3de8250e	0.113351926
136	0xbdc829b2	-0.09773578
137	0x3e1181e4	0.14209706
138	0x3de80725	0.11329488
139	0xbdd6d422	-0.1048968
140	0xbc69fc9c	-0.014281418
141	0xbd6910b5	-0.0569007
142	0x3ba51335	0.00503769
143	0xbdc2d9a3	-0.09514167
144	0x3d3d59c8	0.0462282
145	0x3dbec46b	0.093148075
146	0xbcea6ea7	-0.028617216
147	0x3dbec301	0.09314538
148	0x3dfe1b24	0.124075204
149	0xbe523a85	-0.20530136
150	0xbd8c4026	-0.06848173
151	0x3e1f643e	0.15565583
152	0x3dff0fe0	0.124542
153	0xbdfbf149	-0.12301881
154	0xbe3ab877	-0.1823443
155	0xbe1c6d28	-0.15276015
156	0x3deea1ef	0.1165198
157	0x3cb99af1	0.02265689
158	0xbd54196f	-0.051782068
159	0xbe40d8bc	-0.18832678
160	0x3dd89b98	0.10576552
161	0x3e2772aa	0.16352335
162	0xbe7166e3	-0.23574404
163	0x3e359ee9	0.177364
164	0x3d719221	0.05897725
165	0xbd60326e	-0.054735593
166	0x3db6e52b	0.08930429
167	0xbdaa8b8d	-0.083273984
168	0x3d87dccb	0.0663391
169	0x3e03cc01	0.1287079
170	0xbd827edb	-0.06371852
171	0xbd962752	-0.073317185
172	0x3d76c81d	0.060249437
173	0x3d3cb926	0.04607501
174	0xbdbf2828	-0.09333831
175	0x3df07769	0.11741526
176	0x3e682e3d	0.22673889
177	0x3dba44e5	0.09095172
178	0x3e2c422f	0.16822122
179	0xbdfa37d5	-0.1221768
180	0xbe62b057	-0.22137581
181	0x3ce4f859	0.027950453
182	0x3e221d27	0.15831433
183	0xbda167b2	-0.078811064
184	0xbe1c90eb	-0.15289657
185	0xbe579ed8	-0.21056688
186	0x3e12740b	0.1430208
187	0x3b473b8b	0.003040048
188	0xbdd3a444	-0.103340656
189	0xbe41c097	-0.18921123
190	0x3e138dfd	0.14409633
191	0x3d9fe280	0.07806873
192	0xbd975b5f	-0.073904745
193	0xbd5f741e	-0.054554097
194	0xbe4bf71a	-0.1991848
195	0x3dafec0e	0.08589946
196	0x3dbeee4f	0.093227975
197	0xbb4ef91e	-0.003158159
198	0x3da6f13e	0.08151482
199	0x3da278bf	0.07933187
200	0x3e81551e	0.25260252
201	0x3bd617f5	0.0065336176
202	0xbe8d77ff	-0.27630612
203	0xbe56edad	-0.20989104
204	0x3d7977f5	0.060905416
205	0x3e6aed76	0.22942147
206	0x3d72f372	0.0593142
207	0x3dead992	0.114672795
208	0x3d18ad12	0.037274428
209	0x3dd6d45c	0.10489723
210	0x3d6eba36	0.058283053
211	0xbe8b2025	-0.27172962
212	0xbea0a6e6	-0.31377333
213	0xbd422421	-0.047397736
214	0x3dac5293	0.08414187
215	0x3e55fb00	0.2089653
216	0xbda3dd6a	-0.08001216
217	0x3e771f37	0.24133001
218	0x3e302556	0.17201743
219	0x3db99700	0.09062004
220	0xbe6fd598	-0.23421323
221	0xbd03cb8d	-0.032176543
222	0xbc6402e6	-0.013916707
223	0xbe0cfeb5	-0.13769038
224	0x3b1671d5	0.0022956033
225	0xbda7b6d0	-0.081891656
226	0x3e8a846c	0.27054155
227	0xbe03c4d8	-0.12868059
228	0xbe39c793	-0.18142538
229	0xbe2582e0	-0.16163206
230	0x3e0794d2	0.13240364
231	0x3cc1de4b	0.023665568
232	0xbdd5fa67	-0.10448151
233	0x3dd59905	0.10429577
234	0xbe333a0b	-0.1750261
235	0xbdb5df16	-0.08880441
236	0xbe51ff6a	-0.20507589
237	0x3e48ca8b	0.19608514
238	0x3d2c1b0a	0.042017974
239	0x3e0428c4	0.12906176
240	0x3d505c4d	0.050869275
241	0x3e587533	0.21138458
242	0xbcaccc79	-0.021093594
243	0x3e0191c6	0.12653264
244	0x3e24cc9e	0.1609368
245	0xbc845777	-0.016154988
246	0xbe11ac66	-0.14225921
247	0x3d518ee0	0.051161647
248	0x3def7b1f	0.11693405
249	0x3c0fe771	0.008783207
250	0xbe280eea	-0.1641194
251	0x3d84e050	0.06488097
252	0x3e06b067	0.1315323
253	0xbd6ba4a4	-0.05753006
254	0xbde27e80	-0.11059284
255	0x3ded9264	0.116001874

backbone.0.bias f4 [28]
0	0xbdb31560	-0.08744311
1	0xbe4c857d	-0.19972797
2	0x3dd08f2f	0.1018356
3	0x3cc21a93	0.023694312
4	0xbd9a8722	-0.07545306
5	0x3cfd7f63	0.030944532
6	0x3d27afc7	0.04093912
7	0xbd936a6f	-0.07198035
8	0xbdbd8723	-0.09254291
9	0x3e17e1b1	0.14832188
10	0x3daa532c	0.08316645
11	0xbe47f7b7	-0.1952809
12	0xbc13e43d	-0.009026584
13	0xbd2e2602	-0.042516716
14	0x3e1c5ab9	0.15268983
15	0xbe516371	-0.2044809
16	0xbe8e67dd	-0.27813616
17	0x3da329ff	0.079669945
18	0x3cbf3a1e	0.023343142
19	0xbdfa80a3	-0.12231567
20	0xbd915e14	-0.07098022
21	0xbd67bea2	-0.056578286
22	0xbde5463a	-0.11195035
23	0x3b8920ea	0.004184832
24	0xbd8e6867	-0.06953507
25	0xbd181515	-0.03712948
26	0xbda3f767	-0.080061726
27	0xbd0e0b80	-0.034678936

backbone.3.weight f4 [48, 28, 3, 3]
0	0x3b700676	0.0036624945
1	0xbdae9cab	-0.08525976
2	0x3c9d8c6a	0.019231994
3	0x3cc21d77	0.02369569
4	0x3d907300	0.070531845
5	0xbce17aa2	-0.027524296
6	0x3c273a82	0.01020682
7	0x3ca44b6f	0.0200555
8	0xbb1b1bc6	-0.0023667677
9	0x3cb84ee2	0.022498552
10	0xbd0fd96a	-0.03511945
11	0xbd3924b6	-0.045201026
12	0xbc9322c1	-0.017960908
13	0xbc46ea79	-0.012140864
14	0x3b80f8b7	0.003935899
15	0xbd71c7d4	-0.05902846
16	0x3d3632ae	0.044481926
17	0x3d6b37e1	0.057426337
18	0xbd286fea	-0.041122355
19	0x3d117ebb	0.03552125
20	0xbd7801ae	-0.060548477
21	0x3cd9f886	0.026607763
22	0x3c4fdb52	0.012686567
23	0xbc311a58	-0.0108095035
24	0x3ccc257b	0.024920216
25	0xbbd557bd	-0.0065107034
26	0xbbdd5ffc	-0.006755827
27	0xbd4b2bca	-0.049602307
28	0x3dbce9bf	0.09224271
29	0x3da9d827	0.08293181
30	0x3d0ce43d	0.034397352
31	0x3cd00653	0.02539364
32	0x3ddef617	0.10886782
33	0xbc8eebfc	-0.01744651
34	0xbcd40b22	-0.025884215
35	0x3d93f197	0.07223814
36	0xbb3ff933	-0.0029292821
37	0xbc83b561	-0.0160777
38	0xbdd211ce	-0.10257302
39	0x3d031699	0.032003973
40	0xbc921048	-0.01783003
41	0xbd35270a	-0.044226684
42	0x3cc6668e	0.024218824
43	0x3d4ca500	0.049962044
44	0x3b072f5b	0.0020627591
45	0xbc78c3b3	-0.015183377
46	0x3dac1e45	0.08404211
47	0x3d38ed34	0.04514809
48	0x3ca025f7	0.019549353
49	0x3d2ce707	0.042212512
50	0x3d4c1c0d	0.04983144
51	0x3cac5251	0.021035345
52	0x3d6516bc	0.055929884
53	0x3d9c8ec1	0.07644416
54	0xbddaf777	-0.106917314
55	0x3d080869	0.033211146
56	0x3c2452a0	0.010029465
57	0x3d3e0d10	0.046399176
58	0x3daae4d7	0.08344429
59	0xba381167	-0.0007021636
60	0xbc730f3c	-0.014835175
61	0x3d83884c	0.06422481
62	0xbcdf7fbf	-0.027282594
63	0xbd23bd1d	-0.039975274
64	0x3d067b2c	0.03283231
65	0xbd33e93c	-0.0439236
66	0xbc82e7fa	-0.015979756
67	0x3dae259f	0.085032694
68	0x3dab9bf4	0.08379355
69	0x3d77294c	0.06034212
70	0x3e027547	0.1274005
71	0x3c075b88	0.008261569
72	0x3936d3c1	0.00017435757
73	0xbde99b55	-0.1140658
74	0xbc0288e7	-0.00796721
75	0x3e0bc7b5	0.13650401
76	0x3bad6120	0.005291119
77	0xbc9d1821	-0.019176545
78	0x3cabf614	0.020991363
79	0x3c9208fd	0.017826552
80	0x3c9b27cb	0.018939873
81	0x3c61836b	0.013764243
82	0xbd5e1f58	-0.05422911
83	0x3d47995f	0.04873025
84	0xbd2903e5	-0.04126348
85	0xbd1257d8	-0.035728306
86	0x3dc1345b	0.09433814
87	0xbd6ac075	-0.057312448
88	0x3da2985c	0.079392165
89	0x3dd8a374	0.10578051
90	0x3ccc1cb5	0.024916032
91	0x3ceb3447	0.028711451
92	0x3a5e6361	0.00084834365
93	0x3b9aee1e	0.004728093
94	0x3ce158dc	0.027508192
95	0x3d1016ad	0.035177875
96	0xbcca1838	-0.024669752
97	0x3d22c929	0.039742623
98	0x3c7c639e	0.01540461
99	0x3a35b654	0.0006931771
100	0xbe1e2238	-0.15442741
101	0xbe0ddd10	-0.1385386
102	0xbda44934	-0.08021775
103	0xbd918e14	-0.071071774
104	0xbdb87189	-0.0900603
105	0xbdf1e0db	-0.11810466
106	0xbc13316a	-0.008983949
107	0x3d2c5cca	0.042080678
108	0x3c92e54f	0.017931608
109	0x3cbcbbed	0.023038829
110	0xbcf45284	-0.029824503
111	0x3d8fa37a	0.070136026
112	0xbd2ec856	-0.042671524
113	0x3d909d6a	0.07061274
114	0xbd676eab	-0.056502026
115	0x3d0c039a	0.034183122
116	0xbc8c350b	-0.017115137
117	0xbc7f1d18	-0.015570901
118	0x3d4703e7	0.048587706
119	0x3d0fbf4b	0.03509454
120	0x3dd503b2	0.104010954
121	0x3dd79d47	0.10528045
122	0x3dcbd80c	0.09953317
123	0x3e0f3d0c	0.13988131
124	0x3e163503	0.1466866
125	0x3cb02f8d	0.021507049
126	0x3baba0bc	0.005237667
127	0x3c1f14b6	0.009709528
128	0x3c55368c	0.013013493
129	0x3c05b3ed	0.008160573
130	0xbca6af71	-0.020347329
131	0x3d81b354	0.06333032
132	0x3c8ccd47	0.017187728
133	0xbd50dc35	-0.050991256
134	0xbb8d4cd3	-0.0043121367
135	0xbe303c0e	-0.17210409
136	0xbdd93b62	-0.106070295
137	0xbd787388	-0.060657054
138	0xbd2aed5b	-0.041730266
139	0x3bea117d	0.007143198
140	0xbd910483	-0.07080939
141	0xbdbb5326	-0.09146719
142	0xbd21a97a	-0.039468266
143	0xbbcb7faf	-0.0062102894
144	0xbc930d3d	-0.017950648
145	0x3d462b84	0.048381343
146	0xbd58d64c	-0.052938744
147	0xbb58499c	-0.003300286
148	0xbcc19f5d	-0.02363556
149	0xbd353c7b	-0.04424713
150	0x3db1801a	0.086670116
151	0x3c7bdbf1	0.015372262
152	0xbd2524a5	-0.04031815
153	0xbd2ca1a7	-0.04214635
154	0xbbe54ac7	-0.0069974395
155	0x3d933431	0.07187689
156	0xbcfcb695	-0.03084878
157	0xbcb8b31c	-0.022546344
158	0xbd2c0a6d	-0.04200213
159	0x3da43227	0.08017378
160	0xbd256c09	-0.040386233
161	0xbcfa29f6	-0.030537587
162	0xbd1c2685	-0.038122673
163	0xbd89ac9c	-0.06722376
164	0xbd2882f5	-0.041140515
165	0x3cc55968	0.024090484
166	0xbc4c5bf2	-0.012473093
167	0xbdc08c95	-0.09401814
168	0xbd2199c1	-0.03945327
169	0xbd2fc179	-0.04290912
170	0xbc0585df	-0.008149593
171	0xbd04ebf0	-0.03245157
172	0x3dbd92b7	0.09256499
173	0x3c647a8b	0.013945232
174	0x3a827e05	0.000995577
175	0x3d381824	0.044944897
176	0x3d3b2814	0.04569252
177	0x3db9ebad	0.09078155
178	0x3d0a03a7	0.03369489
179	0x3d87510c	0.06607255
180	0x3c8d6324	0.017259188
181	0xbcc57e13	-0.024107968
182	0x3c8045a5	0.01565821
183	0x3d224489	0.03961614
184	0x3d8f897c	0.07008645
185	0x3b4b2b0e	0.0031001004
186	0x3da89476	0.08231442
187	0x3dbc4cb8	0.091943204
188	0x3d53a8da	0.0516747
189	0xbd9865c9	-0.07441289
190	0xbd8197f1	-0.06327809
191	0x3d0aeafa	0.033915497
192	0x3c30baad	0.0107866945
193	0xbd728198	-0.05920562
194	0x3d9da185	0.07696823
195	0x3da49a5c	0.08037254
196	0xbc32e5e9	-0.010919073
197	0x3cc50003	0.024047857
198	0x3b0cbea5	0.0021475938
199	0x3cbc1e7d	0.022963757
200	0xbdc1354d	-0.094339944
201	0xbd891a6c	-0.06694493
202	0xbb431961	-0.0029769766
203	0xbc928899	-0.0178874
204	0x3c970798	0.018436238
205	0x3d02057f	0.031743523
206	0xbd03c748	-0.03217247
207	0xbdab424a	-0.08362253
208	0xbc0d54a9	-0.008626142
209	0xbcaed79c	-0.021343045
210	0xbd8b7f56	-0.06811397
211	0xbd9f0a94	-0.077656895
212	0xbc4bd55e	-0.012441007
213	0xbcc96a3a	-0.024586786
214	0xbd1cfe97	-0.038328733
215	0xbcbf9171	-0.023384782
216	0xbd874e50	-0.06606734
217	0xbda5c14e	-0.080935106
218	0xbd96954d	-0.073526956
219	0x3d07f0e6	0.033188723
220	0x3daf5a86	0.08562188
221	0xbd417f0a	-0.047240295
222	0xbbc80bda	-0.0061049284
223	0xbc02e219	-0.007988476
224	0x3de09f55	0.1096789
225	0xbd171134	-0.03688164
226	0x3cbccd31	0.023047062
227	0xbd81aa33	-0.06331291
228	0x3d9539db	0.07286426
229	0xbd83a773	-0.06428423
230	0x3c385796	0.011251351
231	0xbcc76445	-0.024339804
232	0xbb8331d8	-0.0040037446
233	0xbd3224ec	-0.043492243
234	0xbe003ab3	-0.12522392
235	0x3c232f8c	0.0099600665
236	0xbd811788	-0.06303316
237	0xbc372f9e	-0.011180786
238	0xbc73faa1	-0.014891298
239	0xbbf5b298	-0.0074980967
240	0x3d89ef43	0.06735089
241	0x3d616c56	0.055034958
242	0x3cc43218	0.023949668
243	0xbdaa3c57	-0.0831229
244	0xbd831933	-0.06401291
245	0x3d22e1bb	0.039766055
246	0xbcb5a1db	-0.022171905
247	0xbd5fca8c	-0.054636523
248	0xbc70d5b4	-0.014699388
249	0x3c93e1c8	0.018051997
250	0x3c135f77	0.008994929
251	0xbc062db8	-0.008189611
252	0x3dc4c7bf	0.09608411
253	0x3ca1124d	0.019662047
254	0xbdd9d73e	-0.10636757
255	0x3d1371d0	0.035997212

backbone.3.bias f4 [48]
0	0x3d847b9f	0.06468891
1	0x3c9c03dc	0.019044809
2	0x3d3c01bb	0.045900088
3	0xbcaca7ed	-0.021076167
4	0xbc0c9a41	-0.008581699
5	0xbd845b3e	-0.064627156
6	0xbb42b0dd	-0.002970747
7	0x3c88f04c	0.016716145
8	0xbd8b9e92	-0.06817354
9	0xbd56afd6	-0.052413784
10	0x3c53a48f	0.012917652
11	0xbc429198	-0.011875533
12	0x3ca7cea3	0.020484274
13	0x3dfd61c4	0.12372163
14	0xbd55332a	-0.052050747
15	0x3c81eb4d	0.01585927
16	0x3b138959	0.0022512286
17	0x3d5e3dfb	0.054258328
18	0x3d5baf5d	0.053634036
19	0xbce4f6cb	-0.027949711
20	0x3db8caf2	0.09023084
21	0x3d68c7ec	0.056831285
22	0x3c992714	0.018695392
23	0x3d1e1b24	0.038600102
24	0xbd8a0593	-0.067393444
25	0x3c2edded	0.010673028
26	0xbd270471	-0.04077572
27	0x3db91d2f	0.090387695
28	0x3d2c926e	0.042131834
29	0xbc0a07b9	-0.008424693
30	0x3ccb32d6	0.024804514
31	0x3c169bcc	0.009192418
32	0x3d9ac6c1	0.075574405
33	0x3d0fc09c	0.035095796
34	0xbda3091f	-0.07960724
35	0xbd2eb647	-0.042654302
36	0xbd6c352f	-0.057667907
37	0x3d017cba	0.03161309
38	0xbdb9956a	-0.090617016
39	0x3d227f8c	0.03967242
40	0x3d7aebcb	0.061260026
41	0x3c3a7dae	0.011382503
42	0x3d1949f6	0.03742405
43	0x3d0a5ee6	0.03378191
44	0x3dc68688	0.096936285
45	0xbd4ab157	-0.04948553
46	0x3c0fd74b	0.008779357
47	0xbdc3c0a7	-0.0955823

backbone.6.weight f4 [64, 48, 2, 2]
0	0xbdadaff9	-0.0848083
1	0x3da4629f	0.08026623
2	0xbe30c7fd	-0.1726379
3	0x3deda8e2	0.116044775
4	0x3d0a8505	0.033818264
5	0x3d2f05fc	0.042730317
6	0x3dc08944	0.09401181
7	0x3db62deb	0.08895477
8	0xbd943bf7	-0.07238
9	0x3bc330ab	0.0059567294
10	0x3c22aa70	0.009928331
11	0x3ce479f2	0.02789018
12	0x3d9df2f5	0.07712356
13	0x3ded8425	0.1159747
14	0xbbf26343	-0.007397087
15	0x3cdf0454	0.027223743
16	0xbbcb10a2	-0.006197051
17	0xbdd947de	-0.10609411
18	0xbc7e5c86	-0.015524989
19	0xbcc4ad7a	-0.024008501
20	0xbe01ded3	-0.12682657
21	0x3da261ad	0.079287864
22	0xbcfddb90	-0.030988485
23	0x3dc67640	0.09690523
24	0xbbd45439	-0.0064797667
25	0x3de8cf07	0.11367612
26	0x3d53fff0	0.051757753
27	0x3d07926e	0.03309863
28	0xbdbb439c	-0.09143755
29	0x3d9d81e3	0.076907896
30	0xbdfa8ee8	-0.122342885
31	0x3d464d50	0.048413575
32	0xbccd479d	-0.025058562
33	0xbcce6e35	-0.025199035
34	0xbd1c0fa8	-0.03810087
35	0xbc808275	-0.015687207
36	0xbd37be6d	-0.04485934
37	0x3d36d820	0.044639707
38	0xbd166422	-0.036716588
39	0x3dde9025	0.10867337
40	0xbd24b687	-0.040213134
41	0x3dd316c4	0.103070766
42	0x3d817b2e	0.06322323
43	0x3dd03784	0.10166839
44	0xbd29f5f1	-0.041494314
45	0x3d00a312	0.031405516
46	0x3d17baa8	0.037043244
47	0xbd126d97	-0.035749044
48	0xbe734bfe	-0.23759457
49	0xbdbfaa79	-0.09358687
50	0xbe308345	-0.17237575
51	0xbd51cee5	-0.0512227
52	0xbdbf0258	-0.09326619
53	0x3cc4dc93	0.02403096
54	0xbd4aec55	-0.04954179
55	0xbe2060f7	-0.15661989
56	0xbca560d7	-0.020187778
57	0xbce554b4	-0.027994491
58	0xbd96f3d8	-0.07370728
59	0x3d588caa	0.052868523
60	0x3dc9fc56	0.098625824
61	0x3cef2072	0.029190276
62	0xbd3494e7	-0.044087317
63	0xbd7c143c	-0.061542735
64	0x3dd5e214	0.104435116
65	0xbd76439e	-0.06012308
66	0x3d9f3511	0.077737935
67	0xbcfae79d	-0.03062802
68	0x3c4669a7	0.01211015
69	0xbd458166	-0.048219107
70	0xbd00d2f3	-0.031451177
71	0xbd0eb397	-0.03483924
72	0x3d388cac	0.04505603
73	0xbce853c5	-0.028360257
74	0x3cddb4d5	0.027063766
75	0xbd82942a	-0.06375916
76	0x3be28d93	0.0069138496
77	0xbd01ccd9	-0.0316895
78	0x3ceddc20	0.029035628
79	0xbd151fc5	-0.03640725
80	0xbd94e9f1	-0.07271183
81	0x3e05ff7c	0.13085741
82	0x3d0e3649	0.03471974
83	0x3dcf787b	0.10130402
84	0x3dcc9987	0.099902205
85	0x3ba31bf1	0.004977696
86	0x3cc819a1	0.024426283
87	0x3e370a93	0.17875127
88	0x3df8e66f	0.12153327
89	0xbe26b3fd	-0.16279598
90	0xbdbafbe4	-0.091300756
91	0xbdad477f	-0.084609024
92	0xbdae9423	-0.085243486
93	0x3c9b5a6e	0.018964019
94	0xbc42ff8e	-0.011901749
95	0x3ddb05ed	0.1069449
96	0x3d60e583	0.05490638
97	0x3d19708b	0.037460845
98	0xbcba3a79	-0.02273296
99	0xbbb3f92c	-0.00549235
100	0x3c92bb25	0.017911503
101	0x3b93cddb	0.004510624
102	0xbd0d26c9	-0.034460817
103	0x3e0572fc	0.13032144
104	0xbe2d2a0b	-0.1691057
105	0x3d1972c4	0.037462965
106	0xbc8d571f	-0.017253457
107	0x3c50ea51	0.012751178
108	0x3de329f8	0.11091989
109	0x3d8f50e8	0.069978535
110	0x3ddb7d56	0.10717265
111	0x3e10d359	0.14143123
112	0x3d00fccd	0.03149109
113	0xbcf2065d	-0.02954405
114	0xbcd1f640	-0.025630116
115	0x3d38d0dd	0.045121063
116	0xbcd7f27c	-0.026360743
117	0xbd047578	-0.03233859
118	0xbdce3de6	-0.100704
119	0x3ceeb5c9	0.029139416
120	0x3dc727d0	0.097243905
121	0xbd837d90	-0.064204335
122	0xbd9df9df	-0.07713675
123	0xbdeb1b9b	-0.11479875
124	0xbdb1ca15	-0.08681122
125	0x3bca095e	0.0061656674
126	0xbd9d24e7	-0.07673054
127	0xbd47233d	-0.04861759
128	0xbd942b92	-0.07234873
129	0x3e27e447	0.16395675
130	0x3bf1d504	0.00738013
131	0x3e190775	0.14944251
132	0x3d88e472	0.066841975
133	0x3df06ff6	0.11740105
134	0xbca70d77	-0.020392163
135	0xbc3e3f81	-0.01161182
136	0x3b0f8fd0	0.0021905787
137	0x3b8a2068	0.004215289
138	0xbd21517f	-0.03938436
139	0xbd64982d	-0.05580919
140	0xbd99cd42	-0.07509853
141	0xbc259b3e	-0.010107813
142	0xbe18d748	-0.14925873
143	0xbcb16a0b	-0.02165701
144	0xbc53151c	-0.012883451
145	0xbd280b04	-0.04102613
146	0xbd643884	-0.05571796
147	0xbd3663f3	-0.044528913
148	0xbe10c6f7	-0.14138399
149	0x3d83a69c	0.064282626
150	0xbd90b632	-0.07066001
151	0x3d67ad40	0.05656171
152	0xbd93b564	-0.07212332
153	0xbd1a4b3f	-0.037669417
154	0xbc01111e	-0.007877616
155	0xbd8cb173	-0.06869783
156	0xbd9a5c60	-0.075371504
157	0x3df5202b	0.11969026
158	0xbdf79d64	-0.12090567
159	0xbc8f53ab	-0.01749595
160	0x3cfb0012	0.030639682
161	0x3d60b8e3	0.05486382
162	0x3ca95138	0.02066861
163	0x3e0aa30a	0.13538757
164	0xbd9f2a27	-0.07771712
165	0xbd72ac6d	-0.05924647
166	0x3c0ab9fd	0.008467195
167	0xbd5b8ddb	-0.05360208
168	0xbc69d7aa	-0.01427261
169	0x3e1872a6	0.14887485
170	0x3d183386	0.03715851
171	0x3e293b60	0.16526556
172	0xbe5fddc7	-0.21861945
173	0xbdcaea42	-0.099079624
174	0xbca65623	-0.020304745
175	0x3d9458ca	0.07243498
176	0xbc84008a	-0.016113538
177	0x3c1827e9	0.009286859
178	0xbd71ab64	-0.05900134
179	0x3d96c7a8	0.073623
180	0x3c072b79	0.008250111
181	0xbdbda0ee	-0.092592105
182	0xbd805ced	-0.06267724
183	0xbd312be2	-0.04325474
184	0xbd400a2c	-0.0468847
185	0xbcc43626	-0.023951601
186	0xbd85f640	-0.06541109
187	0xbdcc68b5	-0.09980909
188	0xbc8e4142	-0.017365102
189	0x3d742770	0.059607923
190	0xba6b1928	-0.0008968287
191	0xbdcdfdc3	-0.10058167
192	0x3d1d8c29	0.038463745
193	0x3d419b45	0.047267217
194	0x3cf1e828	0.029529646
195	0xbdd7f4d3	-0.105447434
196	0x3d6c20dc	0.057648525
197	0xbdc43e13	-0.09582152
198	0x3ddef44f	0.10886442
199	0x3dffb91a	0.12486477
200	0x3d9e3fd6	0.077270195
201	0x3dc3c7d3	0.09559598
202	0xbdaeb3e4	-0.08530405
203	0x3da2424c	0.079228014
204	0x3d5e1793	0.0542217
205	0xbd4b95b6	-0.049703322
206	0xbcb9a073	-0.022659516
207	0x3d9d4238	0.07678646
208	0xbb9c5252	-0.0047705555
209	0x3dad7742	0.08470012
210	0xbe2a51d4	-0.16632777
211	0x3d9175ec	0.0710257
212	0xbd79d79d	-0.06099664
213	0x3d4fef33	0.050765228
214	0x3d1183ea	0.035526194
215	0x3cd32956	0.025776546
216	0x3da90d1d	0.08254454
217	0xbc8dd528	-0.017313555
218	0xbcfe5186	-0.031044733
219	0x3d27f428	0.04100433
220	0xbc28b6f4	-0.010297526
221	0x3d434c4b	0.04768018
222	0xbe3dace8	-0.1852299
223	0xbd5fc9ad	-0.054635692
224	0x3d90df05	0.070737876
225	0xbdf98e33	-0.121853255
226	0x3dbfeae2	0.09370972
227	0xbc3438d5	-0.010999878
228	0xbc9aee51	-0.018912466
229	0x3d8163a9	0.06317837
230	0x3dadfd9e	0.08495639
231	0x3e0517d9	0.12997378
232	0x3ccbe1d0	0.02488795
233	0xbdf01387	-0.117224745
234	0x3dbd0e18	0.09231204
235	0x3c818ae3	0.015813297
236	0x3d33afd3	0.04386885
237	0x3cd9d9de	0.026593145
238	0x3caf613e	0.021408673
239	0x3e14bb62	0.14524606
240	0xbcc6940c	-0.024240516
241	0xbbb8c3f5	-0.0056385943
242	0xbd93736b	-0.071997486
243	0xbc5ddf3e	-0.013541995
244	0x3d68b23b	0.0568106
245	0x3e3728c4	0.17886645
246	0xbd04fca5	-0.032467503
247	0x3de60284	0.112309486
248	0x3d7b63ea	0.061374582
249	0x3d96d4ea	0.07364829
250	0x3c9af3d0	0.018915087
251	0x3dae39a3	0.08507087
252	0xbb0023cb	-0.0019552584
253	0xbe038e0d	-0.12847157
254	0x3e0cab5f	0.13737248
255	0xbc64e6f7	-0.013971082

backbone.6.bias f4 [64]
0	0x3d7bad43	0.061444532
1	0xbcc0c52c	-0.023531519
2	0xbcbc4cea	-0.022985894
3	0xbda899eb	-0.082324825
4	0xbdbfc78e	-0.09364234
5	0x3df74c55	0.12075106
6	0x3d82b0bf	0.06381368
7	0xbd5cbc23	-0.05389036
8	0xbdbfb507	-0.093607
9	0x3cca4b96	0.024694245
10	0xbd15cda6	-0.036573075
11	0x3dd8b0c2	0.10580589
12	0x3da3ac49	0.07991845
13	0xbdc2100d	-0.09475718
14	0xbca27221	-0.019829812
15	0x3d297ef5	0.04138084
16	0x3ddd4b77	0.108054094
17	0xbd6f7bfd	-0.058467854
18	0x3d875661	0.06608272
19	0xbda782cd	-0.08179245
20	0xbc449d25	-0.012000357
21	0x3d44a8c6	0.048012517
22	0xb9f096e4	-0.0004588879
23	0x3da66f51	0.08126701
24	0xbdd4e855	-0.10395876
25	0xbcc9e5fd	-0.0246458
26	0x3d7e4f89	0.06208757
27	0x3de06915	0.10957543
28	0x3dc8f09a	0.09811516
29	0xbd188962	-0.037240393
30	0x3dd9612b	0.106142364
31	0x3d8391bf	0.06424283
32	0x3dbf2b2a	0.09334405
33	0xbc9e6f57	-0.0193402
34	0xbd3d046e	-0.046146803
35	0xbd38dc74	-0.045132115
36	0xbe1f0822	-0.15530446
37	0x3d19f62e	0.03758829
38	0x3d3adf1b	0.045622926
39	0xbda243a3	-0.07923057
40	0xbbff7ba3	-0.007796721
41	0x3e1f1e14	0.15538818
42	0xbda10cdb	-0.0786378
43	0x3d1c798b	0.03820185
44	0x3ce6fff3	0.028198218
45	0x3dcdcc46	0.10048728
46	0x3b29aa64	0.0025888914
47	0x3dded31a	0.10880108
48	0x3df93d3b	0.12169882
49	0x3e55ccac	0.20878857
50	0xbd408dc0	-0.047010183
51	0xbd91b9f1	-0.07115544
52	0x3e04bba6	0.12962207
53	0x3df177ad	0.117904045
54	0xbc87e487	-0.016588463
55	0x3c55afea	0.013042429
56	0xbde35211	-0.11099637
57	0xbdeed0f7	-0.11660951
58	0x3cd72329	0.026261883
59	0xbac6ee6c	-0.0015177256
60	0xbcc979e8	-0.024594262
61	0x3d7329f4	0.05936618
62	0x3d5a8aec	0.053355142
63	0x3da29753	0.07939019

fc.0.weight f4 [128, 576]
0	0xbe061abd	-0.13096137
1	0x3d3d316f	0.04618972
2	0x3d1be1c6	0.03805711
3	0xbdab65ff	-0.083690636
4	0x3d4bf1ba	0.049791075
5	0x3c762656	0.015023788
6	0xbc852f8c	-0.016258024
7	0x3d7418e5	0.059594054
8	0x3dab9880	0.083786964
9	0xbd22b498	-0.03972301
10	0xbd0ad40b	-0.033893626
11	0xbddd7f1b	-0.10815259
12	0xbd92b3ae	-0.071631774
13	0x3cbb2e8c	0.022849344
14	0xbd96f4f0	-0.07370937
15	0x3c263de7	0.010146595
16	0x3dd681ed	0.10474
17	0x3bf0d6cc	0.0073498245
18	0x3d744b4e	0.05964213
19	0x3d6127c1	0.054969553
20	0xbe39bcb8	-0.18138397
21	0xbc9fae4e	-0.019492295
22	0xbd77a716	-0.06046208
23	0xbcbac95d	-0.022801096
24	0x3d149913	0.036278795
25	0xbb090581	-0.0020907822
26	0x3de30a4b	0.110859476
27	0x3b082ae2	0.0020777513
28	0xbae5799f	-0.0017507559
29	0xbc4b14fb	-0.012395139
30	0xbd475e86	-0.04867413
31	0xbccce661	-0.025012197
32	0xbc021523	-0.00793961
33	0xbd2420b0	-0.040070236
34	0x3d8c63c0	0.06854963
35	0x3d67aaea	0.05655948
36	0x3ca7a6fa	0.020465363
37	0x3e31b6b3	0.1735485
38	0x3bab0a7e	0.0052197566
39	0xbe359683	-0.17733197
40	0xb9efdd21	-0.00045750386
41	0x3c4ab414	0.0123720355
42	0x3b8bf35e	0.004270955
43	0xbd4d1a3c	-0.050073847
44	0xbd69f38e	-0.057117037
45	0x3d926ac1	0.07149268
46	0x3b8ece59	0.0043580947
47	0xbd99c325	-0.07507924
48	0x3d25f958	0.040520996
49	0x3be247e2	0.0069055418
50	0xbda4d015	-0.08047501
51	0x3d31207b	0.043243866
52	0x3d1f68b9	0.03891823
53	0x3cf2c467	0.029634668
54	0x3d94e103	0.0726948
55	0x3d19f9fa	0.03759191
56	0xbcd13b20	-0.025540888
57	0xbd1bd1fe	-0.03804206
58	0xbcb8b9c6	-0.022549521
59	0x3d447b38	0.047969073
60	0x3d14e9bb	0.036355715
61	0xbd6944b0	-0.05695027
62	0x3cd620bf	0.026138661
63	0xbd63d6af	-0.05562466
64	0xbdbead2e	-0.09310375
65	0xbdf02d9b	-0.117274486
66	0xbd43a4d3	-0.04776461
67	0xbd2c40e2	-0.042054065
68	0xbd7ec5de	-0.06220042
69	0x3b1b89cd	0.0023733259
70	0x3d45742c	0.048206493
71	0x3d2a0553	0.041508984
72	0xbb8bfcab	-0.0042720637
73	0xbbcd7004	-0.006269457
74	0xbd16293c	-0.036660418
75	0x3d41e16c	0.04733412
76	0x3d35631c	0.04428397
77	0xbce16be5	-0.027517268
78	0x3da4a54e	0.08039342
79	0xbca2e800	-0.019886017
80	0xbd90bbd8	-0.07067078
81	0xbc5b14c2	-0.013371648
82	0xbcb9f546	-0.022699963
83	0xbda4a3ca	-0.08039053
84	0xbd228d6f	-0.039685663
85	0x3d83478d	0.064101316
86	0xbced816f	-0.028992383
87	0x3bd446fc	0.0064781886
88	0x3dc43ce4	0.095819265
89	0xbe0399af	-0.12851594
90	0x3c9ce5a1	0.019152464
91	0xbd5059db	-0.050866943
92	0xbcab73cd	-0.020929242
93	0x3ce78627	0.028262211
94	0xbd3bdc65	-0.04586448
95	0x3c9febbd	0.019521588
96	0x3d92b5aa	0.07163556
97	0xbd63dcc1	-0.05563045
98	0x3d84d999	0.06486816
99	0x3be566b5	0.007000769
100	0xbd13fb22	-0.03612817
101	0xbbf2fbc6	-0.0074152676
102	0x3d05e951	0.03269321
103	0xbd511935	-0.05104943
104	0xbcbeb4b9	-0.023279535
105	0x3c8cdaed	0.017194236
106	0xbcf4fda9	-0.02990611
107	0x3d3ce071	0.04611248
108	0xbd0c5bfa	-0.034267403
109	0xbd8245bd	-0.06360958
110	0x3db51452	0.088417664
111	0xbd3fa91b	-0.04679213
112	0x3c01cec3	0.007922831
113	0xbac7909a	-0.001522559
114	0x3d712309	0.058871303
115	0x3d795e9d	0.060881246
116	0xbb8aed3b	-0.004239706
117	0xbdab7758	-0.083723724
118	0xbd6252bc	-0.055254683
119	0xbd5ee9e9	-0.054422293
120	0xbba6285c	-0.005070729
121	0xbbb235da	-0.0054385485
122	0xbd18370a	-0.037161864
123	0x3cbfb45f	0.023401437
124	0xbcc2678a	-0.023731012
125	0x3c9e6fb1	0.019340368
126	0xbd2007c8	-0.03906992
127	0xbd8fe313	-0.07025733
128	0xbd5894df	-0.05287635
129	0xbdac85fc	-0.08423993
130	0xbc046f35	-0.008083154
131	0xbd7bd9e7	-0.061487105
132	0x3dade5b3	0.08491077
133	0x3dc54dae	0.09633957
134	0x3db16e09	0.08663566
135	0xbcd863f0	-0.026414841
136	0xbc09ff16	-0.008422634
137	0x3bee0c77	0.0072646695
138	0xbd0fb0f9	-0.035080884
139	0xbd40c53b	-0.047063094
140	0x3d09ec1a	0.03367243
141	0xbd2ae340	-0.04172063
142	0xbc7dffd0	-0.015502885
143	0xbc69d362	-0.014271589
144	0x3d662e86	0.056196712
145	0xbcbfd5c0	-0.023417354
146	0x3d002511	0.03128535
147	0x3ce5a8b1	0.02803454
148	0x3d01455e	0.031560294
149	0xbd7fa9e6	-0.062417887
150	0xbbb18065	-0.005416917
151	0xbd8f6267	-0.07001191
152	0xbc873543	-0.01650489
153	0xbdec40cc	-0.115357965
154	0x3cbcc72b	0.02304419
155	0xbd115751	-0.035483662
156	0xbc7a6dfe	-0.015285013
157	0x3ca7ddd1	0.020491512
158	0xbc84f959	-0.01623218
159	0x38983b6d	7.258994e-05
160	0x3d94a0ea	0.072572544
161	0x3d9758f9	0.07390017
162	0x3d44f4a7	0.04808488
163	0xbda1312b	-0.07870706
164	0xbcb2ab16	-0.021810096
165	0x3c7791a1	0.015110404
166	0x3d00b993	0.031426977
167	0x3c417684	0.0118080415
168	0xba71402f	-0.00092029845
169	0xbd1c378a	-0.038138904
170	0xbd80c37b	-0.06287285
171	0xbdc024cd	-0.09382019
172	0x3ca3d64b	0.019999644
173	0xbb6e534e	-0.0036365571
174	0xbcc70d35	-0.02429829
175	0x3d0362de	0.03207671
176	0xbb1de392	-0.0024091941
177	0xbd7b3338	-0.061328143
178	0xbd80f996	-0.06297605
179	0xbdb582eb	-0.08862861
180	0xbdc9f8e9	-0.09861929
181	0x3d43ad6f	0.04777282
182	0x3d46833a	0.04846499
183	0xbd349e75	-0.04409643
184	0x3d7cd1fd	0.061723698
185	0x3bb12848	0.005406413
186	0xbd9d92bb	-0.07694002
187	0x3de68fb1	0.11257876
188	0xbcb458b7	-0.022014959
189	0x3d097800	0.033561707
190	0x3c1793c4	0.009251539
191	0xbcc093ab	-0.023507914
192	0x3d417a8b	0.047236007
193	0x3cb28d15	0.021795789
194	0x3c9be606	0.019030582
195	0xbd2af29d	-0.04173528
196	0xbd431314	-0.047625616
197	0xbc95966e	-0.018260207
198	0x3d944353	0.072394036
199	0xbd36ac6d	-0.04459803
200	0xbd31d70b	-0.04341797
201	0xbc9e1ed5	-0.019301811
202	0xbdce7e55	-0.1008269
203	0xbd9a5621	-0.07535959
204	0x3c751ff1	0.014961229
205	0x3c9e989e	0.019359883
206	0x3cd7f69f	0.026362715
207	0x3d3f19ab	0.04665534
208	0xbad33c84	-0.0016116058
209	0x3c32e698	0.010919236
210	0x3d1b80bd	0.03796457
211	0x3cb5a59e	0.022173699
212	0x3cf42af1	0.029805632
213	0x3d342f82	0.04399062
214	0xbca4a9e5	-0.020100543
215	0xbc03a737	-0.008035473
216	0x3db1577d	0.08659265
217	0x3ca5a602	0.02022076
218	0xbdcabeda	-0.09899683
219	0xbcc1cb18	-0.023656413
220	0xbd28dce7	-0.041226294
221	0xbd5bfaa2	-0.05370582
222	0xbd81e796	-0.06343
223	0xbc98dab7	-0.018658979
224	0x3d9cda65	0.07658843
225	0x3b2c3c62	0.0026281108
226	0xbd64def8	-0.055876702
227	0xbc9cd5df	-0.01914495
228	0x3cd9f1df	0.026604591
229	0xbd43c87d	-0.047798622
230	0xbcd848bc	-0.02640187
231	0x3cec0164	0.028809257
232	0xba5cab45	-0.0008417855
233	0x3cfc8188	0.030823484
234	0x3c500438	0.012696318
235	0xbd2b431a	-0.04181204
236	0x39099145	0.00013119455
237	0x3d201572	0.03908295
238	0x3ccb6b90	0.024831563
239	0xbc505c7c	-0.0127173625
240	0x3d17cf61	0.037063006
241	0xbcd6ce2e	-0.026221361
242	0xbc35668a	-0.0110718105
243	0xbb841580	-0.0040308833
244	0xbcc356c9	-0.023845093
245	0xbd3506cb	-0.04419593
246	0xbd870612	-0.06592955
247	0xbbcc9aaa	-0.0062440233
248	0xbc8e34fe	-0.017359253
249	0xbd84a3e5	-0.06476573
250	0xbd52af26	-0.051436566
251	0x3d84fd64	0.06493643
252	0x3d45f4fb	0.048329335
253	0xbc80e308	-0.015733257
254	0x3cddd671	0.027079793
255	0xbc4a8fcb	-0.0123633845

fc.0.bias f4 [128]
0	0xbb718a44	-0.0036856094
1	0xbd95de79	-0.07317824
2	0xbcd8e3e5	-0.026475856
3	0x3c8176e4	0.015803762
4	0xbc8342ca	-0.016023058
5	0x3cf623ed	0.030046428
6	0xbdf811f7	-0.121128015
7	0x3d2e785d	0.042595256
8	0xbe628b29	-0.22123398
9	0x3c78bc50	0.015181616
10	0xbd2e32be	-0.04252886
11	0xbd82119a	-0.063510135
12	0xbbfa2321	-0.007633582
13	0xbd0005a5	-0.031255383
14	0x3cd3799b	0.025814822
15	0xbd8d672a	-0.069044426
16	0x3d90f23e	0.07077454
17	0x3c284c38	0.010272078
18	0x3d882a19	0.066486545
19	0x3cb73471	0.022363873
20	0x3c850141	0.01623595
21	0x3da9b09f	0.08285641
22	0x3ce8824d	0.028382445
23	0xbcb52290	-0.022111207
24	0xbe1b1b39	-0.15147103
25	0x3adc431c	0.0016804668
26	0x3d02c30b	0.03192429
27	0x3ce0af50	0.027427346
28	0xbd22b65d	-0.039724696
29	0x3d27a7b6	0.040931426
30	0xbd82dbbf	-0.063895695
31	0x3dc6daf0	0.09709728
32	0xbd9c99de	-0.07646535
33	0xbd28bb14	-0.041194037
34	0x3d436e18	0.047712415
35	0x3ca98439	0.020692931
36	0x3e017c41	0.12645055
37	0x3ca24c12	0.019811664
38	0x3c683e89	0.014175066
39	0xbdbb0113	-0.09131064
40	0x3d8909f4	0.066913515
41	0xbde4109d	-0.11135981
42	0x3d28635c	0.04111038
43	0x3caf285c	0.02138155
44	0x3c243bd7	0.010024033
45	0x3d34f629	0.04418007
46	0x3a8f7d6b	0.0010947412
47	0x3d66e8ed	0.05637448
48	0x3d4d1e93	0.050077986
49	0x3d90da1c	0.07072851
50	0xbc902891	-0.017597469
51	0xbda71aa7	-0.081593804
52	0xbdd93eca	-0.10607679
53	0x3d374349	0.044741903
54	0x3d6da45c	0.058018073
55	0x3e1c0f92	0.15240315
56	0xbd9de48c	-0.077096075
57	0xbd77d7eb	-0.06050865
58	0x3d01bce5	0.031674284
59	0x3b208673	0.00244942
60	0x3d9fa7af	0.07795655
61	0x3d2c7d52	0.042111702
62	0xbd56ebb3	-0.052470874
63	0xbc3b6821	-0.0114384005
64	0x3d22e6fa	0.039771058
65	0x3d36b570	0.044606626
66	0xbe0a6dd4	-0.13518459
67	0x3d5a09e0	0.053232074
68	0x3cdd8e21	0.027045311
69	0x3d23d810	0.040000975
70	0x3e165416	0.14680514
71	0x3d3168ce	0.04331284
72	0xbde9c887	-0.11415201
73	0x3dbadb47	0.09123855
74	0x3e07e7aa	0.13271967
75	0x3d19c779	0.037543748
76	0x3d8d2ae3	0.068929456
77	0x3cd2fff3	0.025756812
78	0x3d2a1bff	0.041530605
79	0x3d55b3e7	0.05217352
80	0x3dca9c46	0.09893088
81	0xbc914c19	-0.017736482
82	0xbd5af4ba	-0.053456046
83	0xbbaa50dc	-0.0051976275
84	0x3c99f271	0.018792363
85	0x3d88211c	0.0664694
86	0x3cd943db	0.026521614
87	0xbc0d628b	-0.0086294515
88	0x3ce5911a	0.028023291
89	0xbdcfdd33	-0.10149612
90	0xbd0bebf2	-0.03416056
91	0x3d09b425	0.033619065
92	0xbc81028e	-0.015748288
93	0x3d847339	0.064672895
94	0x3c3c9018	0.011508964
95	0xbc6bda99	-0.014395379
96	0x3cc21be9	0.02369495
97	0xbdb80d46	-0.08986907
98	0x3cf0ff31	0.02941856
99	0xbd1e20b9	-0.038605426
100	0xbd396433	-0.045261573
101	0x3dbafa55	0.09129778
102	0x3cebe137	0.028793914
103	0x3d0624f9	0.032750104
104	0xbe1b883b	-0.15188687
105	0x3d18eff4	0.037338212
106	0xbe18ce73	-0.14922504
107	0x3d2034d5	0.039112885
108	0xbc662be4	-0.01404855
109	0x3d7d676d	0.061866213
110	0x3d0abef6	0.03387352
111	0x3cc8a8f4	0.024494626
112	0x3d0e9c6a	0.034817137
113	0x3d8eb709	0.06968505
114	0x3dad1246	0.08450751
115	0x3e0c4af8	0.13700473
116	0x3d318d0b	0.0433474
117	0xbcdb959f	-0.026804743
118	0x3d543d58	0.051816314
119	0x3db8bdea	0.09020598
120	0x3d7b9ce3	0.061428916
121	0x3dc16efc	0.09444997
122	0x3ced1f4c	0.028945588
123	0xbd623381	-0.0552249
124	0xbd54dafe	-0.05196666
125	0x3c3dcb64	0.011584137
126	0x3d7575ee	0.05992692
127	0xbdb3969e	-0.08768962

cls_layer.weight f4 [2, 128]
0	0xbe215ffb	-0.1575927
1	0x3d1bba82	0.038019665
2	0xbe553581	-0.20821191
3	0xbe9f7836	-0.311464
4	0x3de92ea4	0.11385849
5	0x3e36e225	0.17859705
6	0xbd89b039	-0.06723065
7	0x3df537af	0.119735114
8	0xbdcc7a51	-0.099842675
9	0xbe81adf8	-0.2532804
10	0x3e63252c	0.22182149
11	0xbdfae8c6	-0.12251429
12	0xbdc87ebb	-0.09789797
13	0xbdf397de	-0.11894201
14	0x3e579851	0.21054198
15	0xbe94cf10	-0.29064226
16	0x3e3ea8b2	0.1861904
17	0xbd7e5ae3	-0.062098395
18	0x3e19c2dd	0.1501574
19	0xbe92fa7d	-0.28706732
20	0x3db8f557	0.0903117
21	0x3e174f8c	0.14776438
22	0xbda4ba52	-0.0804335
23	0xbe34f454	-0.17671329
24	0xbe11a985	-0.14224823
25	0x3d72be42	0.059263475
26	0xbe59c45f	-0.21266316
27	0x3e6aa4cf	0.22914432
28	0xbe99adf9	-0.30015543
29	0x3e0c011a	0.13672295
30	0xbd3c2c13	-0.04594047
31	0xbd53bdff	-0.051694866
32	0xbd6e6a3c	-0.05820678
33	0xbe401ae7	-0.18760262
34	0x3df8a50c	0.12140855
35	0xbe7f70de	-0.24945399
36	0xbd8e2dbf	-0.06942319
37	0x3e16d95c	0.14731354
38	0x3dc56f48	0.09640366
39	0xbd8ceb8b	-0.06880864
40	0x3d3ff3a1	0.046863202
41	0xbd41b105	-0.04728796
42	0xbe0e1910	-0.13876748
43	0xbe5d206c	-0.21594399
44	0xbe216f2c	-0.15765065
45	0x3e5e8e7f	0.21734045
46	0xbe1ac931	-0.15115811
47	0x3e6bb362	0.23017648
48	0x3dc01e55	0.093807854
49	0x3dd946c0	0.106091976
50	0xbdbd48dd	-0.09242413
51	0xbe181b79	-0.1485423
52	0xbdc8cf8c	-0.098052114
53	0x3dd02583	0.10163405
54	0x3e144097	0.14477764
55	0x3dd3c0d8	0.103395164
56	0xbc8ae2f8	-0.01695393
57	0x3de81695	0.11332432
58	0x3e0f5cef	0.14000295
59	0x3e407464	0.187944
60	0x3d41d45e	0.04732167
61	0x3d9dc08b	0.0770274
62	0xbe6a1070	-0.22857833
63	0xbe061dc8	-0.13097298
64	0xbd106c01	-0.03525925
65	0xbe8a869b	-0.2705582
66	0xbd366f00	-0.04453945
67	0x3e2099b8	0.15683639
68	0x3dd7db1e	0.1053984
69	0xbe9bc96a	-0.30427104
70	0x3c902ae7	0.017598582
71	0x3de791e1	0.11307121
72	0xbd1e740f	-0.0386849
73	0xbce28106	-0.027649414
74	0x3db16383	0.086615585
75	0x3dcdd556	0.10050456
76	0xbe06fd44	-0.1318255
77	0xbe0f8a88	-0.14017689
78	0x3de90b7a	0.11379142
79	0x3e0b165f	0.13582753
80	0x3cf6d7a1	0.030132117
81	0xbe2f0267	-0.1709076
82	0xbe2b39ea	-0.16721311
83	0x3e3e5e91	0.18590762
84	0xbe368957	-0.17825828
85	0x3e24f3d0	0.16108632
86	0xbe0bf9e2	-0.13669541
87	0xbe3d0db3	-0.18462257
88	0x3e71d44f	0.23616146
89	0xbde34295	-0.11096684
90	0x3ded172f	0.115766875
91	0x3dddbd22	0.1082709
92	0xbe285f13	-0.16442518
93	0xbe888711	-0.26665547
94	0xbe587c57	-0.21141182
95	0xbdd9a32a	-0.10626824
96	0x3e01af6a	0.12664571
97	0xbe76b827	-0.24093686
98	0x3e175d31	0.14781643
99	0xbe93525a	-0.28773767
100	0xbc19ee85	-0.009395246
101	0x3e7059d6	0.2347177
102	0x3e1c8f3d	0.15289016
103	0xbe13a002	-0.14416507
104	0x3c695d66	0.014243459
105	0x3e27cc7c	0.16386598
106	0xbddecf80	-0.10879421
107	0x3def1d08	0.11675459
108	0xbcd00773	-0.025394177
109	0x3e32c3b1	0.17457463
110	0xbe4ef118	-0.20209157
111	0xbdec0b21	-0.1152556
112	0x3e0dff37	0.13866888
113	0x3e2a52f3	0.16633205
114	0x3dd103ee	0.10205828
115	0x3dd1b590	0.102397084
116	0x3dceab2a	0.10091241
117	0xbe3773a7	-0.17915212
118	0x3e2b5864	0.16732937
119	0x3ddaeb06	0.106893584
120	0x3d9f4280	0.07776356
121	0x3d9594b4	0.073037535
122	0xbd9e6c59	-0.077355094
123	0x3c3f814e	0.0116885435
124	0xbe452cdc	-0.19255394
125	0xbe0de8ad	-0.1385829
126	0x3dbbe980	0.09175396
127	0xbdda5f41	-0.106626995
128	0x3e03ba34	0.12864
129	0xbe06d5cf	-0.13167499
130	0x3e1e41b7	0.15454756
131	0x3eb4fb2a	0.35347873
132	0xbe402eb2	-0.18767813
133	0xbe83a75b	-0.2571362
134	0xbcb39a9f	-0.021924315
135	0xbda3cc2e	-0.079979286
136	0x3d265526	0.040608548
137	0x3e743a0f	0.23850273
138	0xbdedc174	-0.11609164
139	0x3dc1bf28	0.09460288
140	0x3e6490ee	0.22320911
141	0x3e3704ff	0.17873
142	0xbdc48e88	-0.09597498
143	0x3eb2b169	0.34900978
144	0xbe7d5f59	-0.24743403
145	0x3d9d9b38	0.07695621
146	0xbda6e364	-0.0814884
147	0x3e97de5d	0.29661837
148	0xbd392f4e	-0.04521113
149	0xbda34cfd	-0.07973669
150	0x3e3aa5eb	0.18227355
151	0x3da596d8	0.08085412
152	0x3d0cb075	0.03434797
153	0x3d844683	0.064587615
154	0x3e26b0e5	0.16278417
155	0xbe88aaba	-0.26692754
156	0x3e98fd7e	0.298809
157	0xbe0f27fe	-0.139801
158	0xbc054a78	-0.0081354305
159	0xbdbfa98c	-0.093585104
160	0x3c4a9354	0.012364227
161	0x3e270dc7	0.1631385
162	0xbe7d2570	-0.24721313
163	0x3e88d202	0.26722723
164	0x3dd8bd32	0.10582961
165	0xbdd4e6ee	-0.10395609
166	0xbe1cff78	-0.15331829
167	0x3e0c8aa7	0.13724767
168	0xbdda07d1	-0.10646022
169	0x3e0970d8	0.13421953
170	0x3d382baf	0.044963535
171	0x3e68ea58	0.22745645
172	0x3de2e65d	0.110790946
173	0xbe562ce1	-0.20915557
174	0x3df62d62	0.12020375
175	0xbe2beace	-0.1678879
176	0xbe34d09b	-0.17657702
177	0xbe1e5bf1	-0.1546476
178	0x3e08c146	0.13354978
179	0x3e68b5f1	0.22725655
180	0x3d88ea26	0.06685285
181	0xbe0f0ce2	-0.13969758
182	0xbd2c5498	-0.042072862
183	0x3d2b916c	0.041886732
184	0x3da27575	0.079325594
185	0xbd549aae	-0.051905327
186	0xbe1aceb0	-0.15117908
187	0xbe698aca	-0.2280685
188	0x3db13e75	0.08654491
189	0x3b831219	0.00399996
190	0x3e72f44b	0.23726003
191	0x3e345287	0.17609607
192	0x3e11aaa2	0.14225248
193	0x3e6452a4	0.2229715
194	0x3d072671	0.032995645
195	0xbdb5a9c5	-0.088702716
196	0xbddd795e	-0.108141646
197	0x3e2be9b8	0.16788375
198	0x3d0b3ffe	0.033996575
199	0xbdbfc015	-0.093628086
200	0x3b80565f	0.0039165462
201	0x3e29125f	0.16510914
202	0x3c3d2e40	0.011546671
203	0xbdd12b86	-0.102133796
204	0x3dac01ba	0.08398767
205	0x3e14b11a	0.14520684
206	0xbe0773a6	-0.1322771
207	0xbe03b1a4	-0.12860733
208	0xbd7b06b2	-0.061285682
209	0x3e1e12ed	0.15436907
210	0x3e3fd3ac	0.1873309
211	0xbe232eb2	-0.15935782
212	0x3e2c5c7c	0.16832155
213	0xbd830140	-0.06396723
214	0x3e0ed8f0	0.13949943
215	0x3db236fa	0.08701892
216	0xbe8b055d	-0.2715253
217	0xbd4a4a0f	-0.049387034
218	0xbe3db8b3	-0.18527488
219	0xbde34b85	-0.110983886
220	0x3dd6d38b	0.10489567
221	0x3e97680d	0.29571572
222	0x3e764f5a	0.24053708
223	0xbca00f77	-0.019538624
224	0xbe054b6c	-0.13017052
225	0x3e96ee83	0.29478845
226	0xbe599e79	-0.21251859
227	0x3e38de12	0.18053463
228	0x3b46cdd6	0.003033509
229	0xbe1f84ee	-0.15578052
230	0xbda0b3a9	-0.078467675
231	0x3de34852	0.110977784
232	0x3d3ac0b0	0.045593917
233	0xbe0b125a	-0.1358122
234	0x3db29787	0.08720308
235	0xbdfcd867	-0.12345963
236	0x3d112223	0.035432946
237	0xbe1551b5	-0.1458195
238	0x3e89ea7b	0.26936707
239	0x3dd166e3	0.10224702
240	0xbe2624c0	-0.16224957
241	0xbe04c59e	-0.1296601
242	0xbda451ef	-0.0802344
243	0x3a8d4b15	0.0010779822
244	0xbe0ed638	-0.13948905
245	0x3df96af5	0.121786036
246	0xbde16185	-0.110049285
247	0xbd384243	-0.044985067
248	0xbde8da07	-0.113697104
249	0xbdde15a8	-0.10843974
250	0xbd8a3fa4	-0.0675042
251	0x3dced944	0.10100034
252	0x3e3200e1	0.17383148
253	0x3dfc5baa	0.12322171
254	0xbe1021bc	-0.14075369
255	0x3cf2fde1	0.029662075

cls_layer.bias f4 [2]
0	0xbd612b65	-0.054973025
1	0xbd41d98d	-0.047326613

bbox_layer.weight f4 [4, 128]
0	0x3c716c3b	0.014735277
1	0xbd953788	-0.07285982
2	0xbd592358	-0.053012222
3	0x3d0eadfc	0.034833893
4	0xbd9b0ad8	-0.07570428
5	0x3c4970dd	0.012294975
6	0xbd2fd395	-0.04292639
7	0xbd0f084a	-0.034920014
8	0xbd159828	-0.03652206
9	0xbc56d151	-0.013111428
10	0xbc70635c	-0.014672127
11	0x3d05b5fe	0.032644264
12	0xbd97b8f7	-0.07408326
13	0xbba2713c	-0.0049573462
14	0x3ba8d86c	0.0051527526
15	0x3d63ac3c	0.055584177
16	0x3a4bf572	0.00077804097
17	0xbd7fa349	-0.06241158
18	0x3dfa9387	0.1223517
19	0xbceb2b69	-0.028707223
20	0x3cdb0405	0.026735315
21	0xbd06fc3d	-0.032955397
22	0x3d01c93b	0.03168605
23	0x3c2ba3de	0.010476081
24	0x3c5fd7b8	0.013662271
25	0xbce2eb52	-0.0277001
26	0xbcb50a70	-0.022099704
27	0xbd305842	-0.04305292
28	0x3d5e0e5a	0.054212905
29	0x3c5cdb46	0.013480013
30	0x3d004084	0.031311527
31	0xbc5511fd	-0.013004777
32	0xbd36492c	-0.044503376
33	0x3c482221	0.012215168
34	0xbcf5efd6	-0.03002159
35	0x3ca88804	0.02057267
36	0x3db4747d	0.08811281
37	0x3cd022d9	0.025407242
38	0x3d867e5d	0.06567071
39	0xbd15befc	-0.03655909
40	0x3ce34baa	0.02774604
41	0xbc8fec23	-0.017568653
42	0x3d482909	0.04886726
43	0x3c1f66db	0.0097291125
44	0xbb8d8075	-0.004318292
45	0x3d544861	0.05182684
46	0xbd8cfbfa	-0.06883998
47	0xba21e084	-0.0006175118
48	0x3c2bf273	0.010494816
49	0x3d780cac	0.06055896
50	0xbdb015f6	-0.08597939
51	0xbda9793e	-0.08275078
52	0xbd724f34	-0.059157565
53	0x3d896f21	0.06710649
54	0xbdc2e6f1	-0.09516705
55	0xbd221c25	-0.039577622
56	0x3bc4800f	0.005996711
57	0xbe141162	-0.14459756
58	0xbd3969aa	-0.045266785
59	0x3ca713e4	0.020395227
60	0xbd82eec4	-0.06393197
61	0xbca5c96b	-0.020237645
62	0xbdc52d5a	-0.09627791
63	0xbd7373d5	-0.059436638
64	0xbd7b1f4f	-0.061309155
65	0x3d86f545	0.0658975
66	0xbd5447d5	-0.051826317
67	0x3d846a7e	0.06465624
68	0x3a24cce5	0.0006286635
69	0x3d7000d1	0.05859453
70	0xbcf4fdeb	-0.029906234
71	0xbb0356dc	-0.0020040786
72	0x3c2c3d1a	0.010512615
73	0x3d9a09fd	0.07521436
74	0xbcd9dfdc	-0.026596002
75	0x3d780daf	0.060559925
76	0x3cc5c8f3	0.024143672
77	0x3a7e0e3a	0.0009691451
78	0xbd939b3f	-0.07207345
79	0xbcbdc1ac	-0.023163639
80	0xbd5cd550	-0.05391437
81	0xbc863e1e	-0.016387042
82	0xbc3258b4	-0.010885406
83	0xbc97181a	-0.01844411
84	0xbcb0174c	-0.021495484
85	0x3d201eea	0.039091982
86	0x3d893b47	0.067007594
87	0xba8865eb	-0.001040635
88	0xbd905914	-0.0704824
89	0xbd0347c1	-0.03205085
90	0xbcd090a9	-0.025459604
91	0xbb46a075	-0.0030308042
92	0xbd1e3191	-0.03862149
93	0xbd2df8d5	-0.042473633
94	0x3ae944a3	0.0017796945
95	0xbd98ffd5	-0.07470671
96	0xbd7cf5f8	-0.06175801
97	0x3bd8d8ba	0.0066176327
98	0x3da5d734	0.08097687
99	0x3b99ed1d	0.0046974556
100	0x3d23c4ea	0.039982714
101	0xbca081d1	-0.019593151
102	0xbc29376f	-0.010328158
103	0x3cef593f	0.02921736
104	0x3d35bcb0	0.0443694
105	0x3db198c4	0.08671716
106	0x3d1842c9	0.037173066
107	0x3d88e476	0.066842005
108	0xbce38cb2	-0.02777705
109	0x3ada5dd7	0.0016660047
110	0x3cf5080f	0.02991107
111	0x3d5cd000	0.0539093
112	0x3d1c428e	0.03814941
113	0x3c0badc6	0.008525318
114	0x3c0034b5	0.007825066
115	0x3d1159f1	0.035486165
116	0xbd1929f8	-0.03739354
117	0x3d8e060a	0.069347456
118	0xbd485c9d	-0.048916448
119	0x3d3f04b3	0.04663534
120	0xbd5b8ccb	-0.053601068
121	0xbd286acd	-0.04111748
122	0xbdd93954	-0.106066376
123	0xbdc0b158	-0.09408826
124	0xbcac01a9	-0.020996885
125	0xbcb42b78	-0.021993384
126	0x3c69d3e0	0.014271706
127	0x3c2c1b0b	0.010504494
128	0x3d36f6f9	0.044669125
129	0xbd961dbb	-0.073298894
130	0xbd0ad616	-0.033895575
131	0x3d8010e9	0.06253225
132	0x3c99db75	0.018781403
133	0xbdba8e9b	-0.09109231
134	0x3cea2a7a	0.028584708
135	0xbd19791e	-0.037469022
136	0xbd19dd0a	-0.037564315
137	0xbcd66a93	-0.026173865
138	0x3c8c4d17	0.017126603
139	0xbd8a5f7b	-0.06756493
140	0x3d454d5a	0.04816947
141	0xbd87feb4	-0.06640378
142	0x3c84fbf6	0.016233426
143	0x3d728c8b	0.059216063
144	0x3c468b2a	0.01211814
145	0x3d906406	0.07050328
146	0x3d799e65	0.060942072
147	0x3d7b226d	0.061312128
148	0x3d03f668	0.032217413
149	0xbd7628b0	-0.060097396
150	0xbcdd3c1d	-0.027006203
151	0xbd3a2534	-0.045445636
152	0x3cc306c9	0.023806946
153	0x3df41398	0.119178
154	0x3d2ca667	0.04215088
155	0xbddb817d	-0.10718057
156	0x3d966876	0.07344143
157	0x3db83a97	0.0899555
158	0x3d0922f2	0.033480592
159	0x3c6b92d1	0.0143782655
160	0x3cf4a298	0.029862687
161	0x3d92f387	0.071753554
162	0x3d8254fd	0.063638665
163	0x3c83ab17	0.016072793
164	0xbd0e717a	-0.03477619
165	0xbd2eb449	-0.042652402
166	0xbd845777	-0.06461995
167	0xbd7eefc1	-0.062240366
168	0xbc6663a5	-0.014061843
169	0xbc9f559d	-0.019450003
170	0x3d2f0f5e	0.042739265
171	0x3d19286d	0.03739207
172	0x3dafc4df	0.08582472
173	0x3d85a729	0.06526024
174	0xbd75fe71	-0.060057107
175	0xbc1a73c5	-0.009427016
176	0x3d95620c	0.072940916
177	0xbd09343b	-0.033497076
178	0xbd450056	-0.048096023
179	0x3d265715	0.04061039
180	0xbd0d2e63	-0.034468066
181	0xbd638e5d	-0.05555569
182	0xbd9876a7	-0.07444506
183	0xbd225cc3	-0.039639246
184	0x3c8d21af	0.017227976
185	0xbd383296	-0.044970118
186	0x3aef00ce	0.0018234493
187	0x3cc2f8b9	0.02380024
188	0xbe9f386a	-0.31097728
189	0x3e4d4085	0.20044143
190	0xbda55e6b	-0.080746494
191	0xbc828c71	-0.015936108
192	0xbd589648	-0.052877694
193	0x3d0a3aa3	0.033747327
194	0xbd726ccf	-0.0591858
195	0x3b9601a5	0.0045778328
196	0x3db13b1a	0.08653851
197	0xbd93ef06	-0.072233245
198	0x3c217e21	0.009856732
199	0xbd6ea742	-0.05826498
200	0xbcff8342	-0.031190518
201	0xbd57efb3	-0.05271883
202	0x3d6d2a58	0.05790171
203	0x3d1283c4	0.035770193
204	0x3d2c5f4b	0.042083066
205	0xbcab2da3	-0.020895785
206	0xbd7b189e	-0.061302774
207	0xbd937de3	-0.07201745
208	0x3d1d87f6	0.03845974
209	0x3d45d33b	0.04829715
210	0x3b18b2a8	0.0023299847
211	0xbce3034a	-0.02771153
212	0x3d8cd259	0.06876058
213	0xbcd50c0b	-0.02600672
214	0x3d76e332	0.060275264
215	0xbd745f07	-0.059660938
216	0xbd9c2d4b	-0.076258264
217	0x3cc9cd56	0.024634045
218	0x3d1016e1	0.03517807
219	0x3db13b5b	0.08653899
220	0x3d9f989e	0.07792781
221	0x3cfc5854	0.030803837
222	0xbcbe0855	-0.023197332
223	0x3d23e94e	0.04001742
224	0xbd8e2235	-0.06940118
225	0xbcd6a034	-0.026199438
226	0x3c61d194	0.0137828775
227	0xbb81e55e	-0.0039641103
228	0x3e2525cf	0.16127704
229	0x3d9f1d5e	0.07769273
230	0x3ba393e2	0.0049919942
231	0xbd4f3fb3	-0.050597858
232	0xbcc68731	-0.024234386
233	0xbd15dc4e	-0.036587052
234	0xbde941c3	-0.11389496
235	0x3d1f6175	0.0389113
236	0xbdabd798	-0.083907306
237	0x3d4f7ce3	0.05065621
238	0xbd68f253	-0.056871723
239	0x3cb1f467	0.021722985
240	0x3c357fa2	0.011077793
241	0xbcf71f67	-0.030166341
242	0x3bc2fb77	0.005950387
243	0x3d699d62	0.057034858
244	0x3d5955bc	0.05306028
245	0xbae68043	-0.0017585832
246	0x3c9d7bee	0.019224133
247	0x3c16b7e2	0.0091991145
248	0x3d7092d3	0.058733772
249	0xbd2b14cb	-0.041767877
250	0xbe0318ea	-0.12802473
251	0xbd412673	-0.04715581
252	0x3d1bf244	0.03807284
253	0xbcb14bc7	-0.021642579
254	0x3c96bc7b	0.018400421
255	0x3d9914ec	0.07474694

bbox_layer.bias f4 [4]
0	0x3d1c5ea6	0.0381762
1	0xbdcc861e	-0.09986518
2	0x3d34139c	0.043964013
3	0x3ba3a74b	0.004994308
