Design/rnet.pth (torch, 410725 bytes, 14 tensors)

backbone.0.weight f4 [28, 3, 3, 3]
0	0x3e7857f6	0.24252304
1	0xbc3e6103	-0.011619809
2	0x3b89e063	0.004207657
3	0x3de45587	0.111491255
4	0xbe1c2e6c	-0.15252084
5	0x3c48bd93	0.012252229
6	0x3e3aaf1a	0.18230858
7	0x3e12e940	0.1434679
8	0x3cc3c251	0.023896368
9	0xbe1522cb	-0.14564054
10	0xbdf39679	-0.11893935
11	0x3d10675a	0.035254814
12	0xbe3564d1	-0.1771424
13	0xbe2344ec	-0.1594426
14	0xbd9e808c	-0.07739362
15	0x3da962a9	0.08270771
16	0x3e27c82d	0.16384955
17	0xbc936da5	-0.017996619
18	0xbdf11199	-0.117709346
19	0xbe625849	-0.2210399
20	0xbe2a8e81	-0.16655923
21	0xbe7d970b	-0.2476465
22	0xbe5bd64f	-0.21468471
23	0x3d3db179	0.04631183
24	0x3bc88b16	0.006120096
25	0x3e19123b	0.1494836
26	0x3e051eef	0.13000081
27	0x3cf411a4	0.029793568
28	0x3df7efd1	0.12106288
29	0x3e0e117e	0.1387386
30	0xbe157645	-0.14595897
31	0xbc74f73a	-0.0149515215
32	0xbe2a7b99	-0.16648711
33	0x3e5a65b9	0.21327867
34	0x3e3584cd	0.1772644
35	0x3d279039	0.040909026
36	0xbe360e9c	-0.1777901
37	0x3c4c9e8a	0.0124889705
38	0x3cc2e511	0.023790868
39	0xbcec413d	-0.028839702
40	0xbd4ace47	-0.049513128
41	0x3dae9cfd	0.08526037
42	0xbe1c38ab	-0.15255992
43	0x3e158f56	0.1460546
44	0x3d48ae69	0.048994455
45	0x3e0e2e94	0.13884956
46	0xbcc8b3f6	-0.024499875
47	0xbd924c0e	-0.071434125
48	0x3e382b58	0.17985284
49	0xbe1344b6	-0.1438168
50	0xbe42e00d	-0.19030781
51	0x3da26daa	0.07931073
52	0xbcdb53f9	-0.02677344
53	0x3e1c4154	0.15259296
54	0x3e30f24f	0.17279933
55	0x3c2fc0cc	0.010727119
56	0x3dbf28ba	0.0933394
57	0xbdd18f7e	-0.10232447
58	0x3e2e5996	0.17026362
59	0xbd8cdf16	-0.06878488
60	0x3e2c2c4d	0.16813774
61	0x3e003073	0.12518482
62	0xbdf99b8f	-0.121878736
63	0xbe087d4e	-0.1332905
64	0xbe85509f	-0.26038072
65	0xbdef8ac5	-0.1169639
66	0xbe3e818f	-0.1860411
67	0xbd9faeea	-0.07797034
68	0x3dcb2b61	0.09920383
69	0xbb4af738	-0.0030970108
70	0x3d1b1382	0.0378604
71	0xbd4f55dc	-0.05061899
72	0xbe474ee9	-0.19463696
73	0xbd6f5609	-0.05843166
74	0x3cfbf104	0.030754574
75	0x3e241c22	0.16026357
76	0x3de59510	0.11210072
77	0x3e2ef132	0.17084196
78	0x3bccfc3e	0.0062556555
79	0x3c2cc88d	0.010545862
80	0x3e1361bd	0.14392753
81	0x3ba3b017	0.004995357
82	0x3d5b17ae	0.05348938
83	0x3ddbfde8	0.10741788
84	0x3de01bb4	0.10942784
85	0xbe78cdbc	-0.24297231
86	0xbc804436	-0.015657526
87	0xbde90026	-0.113769814
88	0x3e736bcf	0.23771594
89	0xbd9a818a	-0.07544239
90	0x3dfe9fbe	0.12432812
91	0x3e66ea0f	0.22550224
92	0x3d179b5d	0.0370134
93	0xbe05b44e	-0.13057062
94	0xbe617fae	-0.22021362
95	0xbe3edfc6	-0.1864005
96	0x3d87ae35	0.06625024
97	0x3c9d04c3	0.01916731
98	0x3defaa16	0.11702363
99	0x3d84d4b6	0.06485884
100	0x3e60ed8f	0.21965621
101	0xbdb9b43f	-0.09067582
102	0xbcb05ee2	-0.021529619
103	0xbe8fd819	-0.28094557
104	0x3dff135c	0.124548644
105	0xbdf12a8d	-0.11775694
106	0xbd247b07	-0.04015639
107	0x3d9ece33	0.07754173
108	0x3dc76dc7	0.09737735
109	0x3e57bb35	0.21067508
110	0x3e6243ca	0.22096172
111	0x3cd9367d	0.02651524
112	0x3e0dd02a	0.1384894
113	0xbe8a730e	-0.27040905
114	0xbdc83ae8	-0.097768605
115	0x3c9c6ff3	0.01909635
116	0xbdca53e5	-0.09879283
117	0xbd98d0a0	-0.07461667
118	0x3c37d9e3	0.011221382
119	0x3e5a567f	0.21322058
120	0xbd37705b	-0.044784885
121	0x3da92599	0.08259124
122	0xbe988a4c	-0.29793012
123	0x3d88d52a	0.06681283
124	0xbd405579	-0.046956513
125	0x3e252c37	0.16130148
126	0xbd1630f2	-0.03666777
127	0xbc8c706d	-0.017143453
128	0x3dbc9d67	0.092097096
129	0x3d8ebeb2	0.06969966
130	0x3d3f211b	0.04666243
131	0xbe94dafd	-0.29073325
132	0x3e1be70b	0.15224855
133	0xbe101d70	-0.1407373
134	0x3dceb3bd	0.10092876
135	0x3e8b6f38	0.2723329
136	0x3e5d4fe0	0.21612501
137	0x3d981b9a	0.074271396
138	0xbdc80dea	-0.09768279
139	0xbc0574e7	-0.0081455475
140	0xbe58cf7a	-0.21172896
141	0xbe4f99f8	-0.20273578
142	0x3d8b2fbe	0.067962155
143	0x3bbe76b3	0.00581249
144	0x3e92e095	0.28686967
145	0x3e7b1c25	0.24522455
146	0xbde48556	-0.11158244
147	0x3de436b6	0.11143248
148	0xbdabfcc6	-0.08397822
149	0xbdfb98bd	-0.12284992
150	0x3dab306c	0.08358845
151	0xbe33fcca	-0.175769
152	0xbd7c9cec	-0.06167309
153	0xbc59c55d	-0.013291684
154	0x3ca3c4e5	0.019991348
155	0x3c8f43f3	0.017488455
156	0xbdd9e7d3	-0.1063992
157	0x3e17d290	0.14826417
158	0x3dd32560	0.10309863
159	0xbe27a1e2	-0.16370347
160	0xbe2950ac	-0.1653468
161	0xbe0983ef	-0.13429235
162	0x3e2b6d9d	0.16741033
163	0x3b8aa865	0.0042315
164	0x3e8da4b1	0.27664712
165	0xbd906b5d	-0.07051728
166	0xbe2f945f	-0.17146443
167	0x3dcb9649	0.09940774
168	0x3e887d65	0.26658168
169	0x3e56159e	0.20906684
170	0xbe41f130	-0.18939662
171	0x3d5b62d3	0.053561043
172	0xbda1409c	-0.078736514
173	0x3b6b9aa6	0.0035950332
174	0xbde52bd4	-0.1119
175	0xbe81c215	-0.25343385
176	0x3e417e31	0.18895794
177	0x3dac4793	0.08412089
178	0x3de71bc9	0.112845965
179	0xbd8f64d2	-0.07001652
180	0xbdae3a43	-0.08507206
181	0xbd653b9b	-0.055965047
182	0x3e2bfc42	0.16795447
183	0xbe049e37	-0.12950979
184	0xbd600e47	-0.054701116
185	0xbdc5b0f0	-0.09652889
186	0x3d9beb7d	0.07613275
187	0xbe109f25	-0.14123209
188	0xbe667c85	-0.22508438
189	0x3d1dcb7a	0.03852413
190	0x3db48d6b	0.08816036
191	0x3db07800	0.08616638
192	0x3e0fd5b0	0.14046359
193	0x3de42411	0.111396916
194	0xbda41c62	-0.08013226
195	0xbcdb61ab	-0.02677997
196	0xbd82455c	-0.063608855
197	0xbe245d7d	-0.16051288
198	0x3e4055d8	0.18782747
199	0xbdb380d7	-0.087648086
200	0x3dd3c00e	0.10339366
201	0x3e4ab882	0.19796947
202	0xbe00b49c	-0.12568897
203	0x3deb9e6d	0.11504827
204	0x3d74405f	0.0596317
205	0xbd61062f	-0.054937538
206	0x3e0f1f67	0.13976823
207	0x3cd783ba	0.02630793
208	0x3d837ad4	0.06419912
209	0x3d5f7ce3	0.05456246
210	0x3e1ad2a4	0.15119416
211	0xbd6ae40d	-0.057346392
212	0xbc810312	-0.015748534
213	0xbe399997	-0.18124996
214	0xbe37605a	-0.17907849
215	0x39ccf4b7	0.0003909224
216	0xbc479c99	-0.012183332
217	0xbe4202e6	-0.18946418
218	0x3cdca58a	0.026934404
219	0xbdbddc82	-0.09270574
220	0xbe1625b8	-0.14662826
221	0xbd349dc2	-0.044095762
222	0xbc644ea2	-0.013934763
223	0x3d90c2bd	0.070683934
224	0x3bbc02eb	0.0057376525
225	0xbe143ecd	-0.14477082
226	0xbe1bff27	-0.15234052
227	0x3cc537be	0.024074432
228	0x3e2cf1dd	0.16889139
229	0x3e092763	0.13393931
230	0xbba85222	-0.005136744
231	0x3e4ab0b8	0.19793975
232	0x3e3fc5b5	0.18727763
233	0x3dad6c10	0.08467877
234	0xbe187810	-0.1488955
235	0xbe818166	-0.25294036
236	0xbd9bfb50	-0.076162934
237	0x3e2707d6	0.16311583
238	0xbdf67eaa	-0.12035878
239	0xbde1065a	-0.109875396
240	0x3e1092f7	0.14118563
241	0x3d405fbd	0.046966303
242	0x3e34819a	0.17627564
243	0xbd15eecc	-0.036604688
244	0xbd7d3af9	-0.06182382
245	0x3e090b8d	0.13383313
246	0xbd99c330	-0.07507932
247	0x3e2b6cdf	0.1674075
248	0xbe29a2e9	-0.16566052
249	0x3e01bfd9	0.1267084
250	0xbc569e98	-0.013099335
251	0xbc8dec89	-0.017324703
252	0xbccc9fd8	-0.024978563
253	0x3e2038a0	0.156466
254	0x3de063a3	0.10956504
255	0xbe0b1119	-0.13580741

backbone.0.bias f4 [28]
0	0xbdbe5cbb	-0.09295031
1	0x3df70d24	0.12063053
2	0xbdecc8cc	-0.115617365
3	0xbccde6b2	-0.025134418
4	0xbe0bfa4b	-0.13669698
5	0xbd0e272a	-0.03470532
6	0x3dc07c63	0.09398725
7	0xbe072229	-0.13196625
8	0xbe0877ed	-0.13326998
9	0x3d442779	0.047889207
10	0xbe46863f	-0.19387148
11	0xbdd02d25	-0.10164861
12	0xbe1365cc	-0.14394301
13	0xbbca041a	-0.0061650397
14	0x3d9cc664	0.076550275
15	0x3d3a4e08	0.045484573
16	0x3d41f00f	0.04734808
17	0xba7685fa	-0.00094041193
18	0x3e41905e	0.18902728
19	0x3dac85fb	0.08423992
20	0xbdc22234	-0.0947918
21	0x3c48076a	0.012208799
22	0xbe028149	-0.12744631
23	0xbe5ffcca	-0.21873775
24	0xbdb312c1	-0.087438114
25	0xbb7a4a2b	-0.003819118
26	0xbdc64401	-0.096809395
27	0xbe267b4a	-0.16257969

backbone.3.weight f4 [48, 28, 3, 3]
0	0x3c54dff2	0.012992846
1	0x3d35b97d	0.04436635
2	0xbd3c54df	-0.045979377
3	0x3d061173	0.032731485
4	0x3d21370c	0.039359137
5	0xbc98686b	-0.018604478
6	0xbd9809c4	-0.07423738
7	0x3c4db05c	0.012554254
8	0x3e02f05b	0.12787001
9	0xbdd94cc0	-0.10610342
10	0xbc0c2faf	-0.0085562905
11	0x3d44de06	0.0480633
12	0x3b874a4d	0.0041287304
13	0x3bfce738	0.007717993
14	0xbcdc9cb5	-0.026930192
15	0xbc9f27a9	-0.019428091
16	0x3b83ee66	0.004026222
17	0x3d295925	0.04134478
18	0x3d32caf8	0.043650597
19	0x3876ec7c	5.8871214e-05
20	0xbc5b361e	-0.013379602
21	0xbb04942c	-0.002022992
22	0xbd20c8a1	-0.039253835
23	0x3d8af5ce	0.06785165
24	0xbbac7725	-0.0052632266
25	0xbd941d11	-0.072321065
26	0x3dc6149b	0.09671899
27	0x3bce8816	0.006302844
28	0xbd01e15d	-0.031709064
29	0xbd3813f1	-0.044940893
30	0x3cca44e3	0.02469105
31	0xba5cdeeb	-0.00084255514
32	0xbc31648e	-0.010827197
33	0xbdf23262	-0.11826016
34	0xbbb4a06a	-0.005512287
35	0x3dd8a545	0.10578398
36	0xbd718b0b	-0.058970492
37	0xbdd81755	-0.10551325
38	0xbd0817ee	-0.033225946
39	0xbe006f65	-0.12542494
40	0xbd61217e	-0.05496358
41	0x3d20dc3c	0.039272532
42	0xbe00fae9	-0.12595715
43	0x3dbee110	0.09320271
44	0x39bd6d6d	0.00036130418
45	0x3c917782	0.017757181
46	0xbd811ace	-0.06303941
47	0xbd41342a	-0.04716889
48	0x3dc0d8b4	0.09416333
49	0xbc37a701	-0.01120925
50	0x3d896358	0.067084014
51	0x3cc7ab50	0.02437368
52	0xbcfc7783	-0.030818706
53	0x3c4e476e	0.012590272
54	0xbddf7085	-0.10910133
55	0xbe56f718	-0.20992696
56	0xbdf007d2	-0.117202416
57	0xbcf38b8f	-0.029729633
58	0xbdc40b5f	-0.09572481
59	0x3c0d6808	0.00863076
60	0xbd0ec6f3	-0.0348577
61	0xbcbc0ddb	-0.022955826
62	0x3e0f96fc	0.1402244
63	0xbd82202f	-0.06353795
64	0xbd86a0bb	-0.06573626
65	0xbbf19723	-0.007372753
66	0xbde67518	-0.112528026
67	0xbd9e816b	-0.07739528
68	0xbce7cc74	-0.028295733
69	0xbdea0f6a	-0.11428721
70	0xbd956262	-0.07294156
71	0x3d345a7e	0.044031613
72	0xbdd798a4	-0.10527161
73	0xbbcebef0	-0.0063093826
74	0xbd279450	-0.040912926
75	0xbda2af30	-0.079435706
76	0xbd10019e	-0.035157792
77	0xbac9a047	-0.0015382849
78	0xbc73f6b5	-0.0148903625
79	0xbd010060	-0.0314945
80	0x3cbc244a	0.022966523
81	0x3c4a15ee	0.01233433
82	0x3c67b3d7	0.014141998
83	0xbc026a6b	-0.007959942
84	0x3d87aa2c	0.066242546
85	0xbc9bc60c	-0.019015335
86	0x3d39a610	0.045324385
87	0x3daae387	0.08344179
88	0xbc976c49	-0.018484252
89	0xb9be314d	-0.00036276356
90	0xbd4f4336	-0.050601207
91	0xbccc54a6	-0.024942707
92	0x3da56fc5	0.08077959
93	0xbdad0183	-0.08447554
94	0xbd643c73	-0.05572171
95	0xbdc760ba	-0.09735246
96	0xbdbc3305	-0.09189419
97	0xbd1efe0c	-0.038816497
98	0x3d6f6eb8	0.0584552
99	0x3d036d07	0.0320864
100	0xbdd41650	-0.10355818
101	0xbe1c19fe	-0.1524429
102	0xbdcc0120	-0.09961152
103	0xbd23e929	-0.04001728
104	0xbe1150e8	-0.1419102
105	0xbd94da55	-0.07268206
106	0xbd766d2a	-0.0601627
107	0xbb61a11c	-0.0034428304
108	0xbe04a005	-0.12951668
109	0xbd049ed7	-0.032378044
110	0xbcfcd78b	-0.030864498
111	0xbd467880	-0.04845476
112	0xbd7375c3	-0.05943848
113	0xbcb26f31	-0.021781536
114	0xbdd2103c	-0.10257003
115	0xbc90bf9e	-0.017669495
116	0x3d2ae038	0.041717738
117	0x3dabc60e	0.08387385
118	0xbc8a5b5a	-0.016889263
119	0x3d5331dd	0.051561225
120	0x3c83b0bd	0.016075486
121	0x3c9f518c	0.019448064
122	0x3d4fb0b5	0.05070563
123	0x3d8595af	0.065226905
124	0xbd222b36	-0.03959199
125	0xbd1e3a4b	-0.03862981
126	0x3ce87a35	0.028378585
127	0xbd39839e	-0.045291536
128	0xbdd865c8	-0.10566288
129	0x3de282bd	0.110600926
130	0xbcfb2140	-0.030655503
131	0x3d4b9b81	0.049708847
132	0x3d0721ab	0.032991093
133	0xbc4d7cac	-0.012541931
134	0x3c3cff69	0.011535504
135	0x3deed634	0.1166195
136	0x3c0b43bc	0.008500036
137	0xbb8bbcfe	-0.004264473
138	0x3d9a4b09	0.07533843
139	0xbcefbeeb	-0.029265841
140	0xbcf540e3	-0.029938167
141	0x3d25e3e4	0.040500537
142	0xbce8e469	-0.028429227
143	0x3d5fe8b2	0.054665275
144	0x3c30dbbc	0.010794576
145	0xbcc58666	-0.024111938
146	0x3cca7202	0.024712566
147	0xbe06d5fe	-0.13167569
148	0xbd887b71	-0.066641696
149	0xbd5fe72e	-0.05466383
150	0xbd687e0d	-0.056760836
151	0xbc69ecb4	-0.014277626
152	0x3d074642	0.033025987
153	0x3c070e18	0.008243106
154	0x3cf15696	0.029460233
155	0xbaf79507	-0.0018889018
156	0x3d34e78e	0.04416614
157	0xbae27c9b	-0.0017279567
158	0xbd5e9c24	-0.054348126
159	0xbc3b0cc5	-0.011416619
160	0x3c41eed7	0.011836729
161	0x3d29206f	0.041290697
162	0x3d8f93c8	0.07010609
163	0x3cd597a1	0.026073279
164	0x3d4d059a	0.05005417
165	0xbce7505e	-0.028236564
166	0x3d8c2966	0.068438336
167	0x3d65d026	0.05610671
168	0xbc9e30ae	-0.019310322
169	0x3d494655	0.04913934
170	0x3d552ea7	0.052046444
171	0x3dba0695	0.09083287
172	0xbc94c9dc	-0.01816266
173	0x3ced75f4	0.028986908
174	0x3d1640a0	0.036682725
175	0xbd1f673a	-0.038916804
176	0x3d3de31d	0.04635917
177	0xbc2b6fdc	-0.010463681
178	0xbaf62e1e	-0.0018782055
179	0x3d8c9144	0.06863645
180	0x3d67d744	0.056601778
181	0x3ddf3e3a	0.10900541
182	0xbcd8da59	-0.026471304
183	0xbd182b29	-0.037150536
184	0xbd4fea2a	-0.050760426
185	0xbc208632	-0.00979762
186	0xbb83d1af	-0.004022799
187	0xbdf05e7e	-0.11736773
188	0xbd65c722	-0.05609811
189	0xbd57bc1d	-0.052669633
190	0x3de69ebd	0.11260746
191	0x3bc5c14f	0.006035007
192	0x3caf4aa6	0.0213979
193	0x3d6fb1d0	0.058519185
194	0x3ca29c9a	0.019850064
195	0x3ba16ce6	0.004926312
196	0x3d1ef371	0.038806383
197	0x3d700517	0.058598604
198	0xbdc1769e	-0.094464526
199	0xbd3defcf	-0.046371277
200	0xbdae150b	-0.085001074
201	0xbdd5f654	-0.10447374
202	0xbd030460	-0.031986594
203	0x3d5264f0	0.051365793
204	0xbd29cb60	-0.04145372
205	0x3cb246fe	0.021762367
206	0x3b31fbb1	0.0027158076
207	0xbd1784d5	-0.036991913
208	0xbdd34155	-0.103151955
209	0xbd5b1b55	-0.053492863
210	0xbe0ec457	-0.13942085
211	0xbded099d	-0.11574099
212	0xbda9b365	-0.0828617
213	0xbce50fe1	-0.027961673
214	0xbd648ab1	-0.05579633
215	0x3d3ef60d	0.04662137
216	0xbe28ffa8	-0.16503775
217	0xbd428e99	-0.047499273
218	0xbcfb8d96	-0.030707162
219	0xbdbc3a94	-0.091908604
220	0xbd353c6f	-0.044247087
221	0xbdd70848	-0.104996264
222	0xbd5291c3	-0.05140854
223	0xbdd3f3b9	-0.10349221
224	0xbc98099c	-0.01855927
225	0x3d851a98	0.06499213
226	0x3db49375	0.08817188
227	0xbd22fcf0	-0.039792
228	0x3d3e4608	0.046453506
229	0x3d175389	0.0369449
230	0x3d73cb39	0.05951998
231	0xbd1f5146	-0.038895868
232	0xbc9d1226	-0.019173693
233	0x3d8d14d9	0.06888742
234	0xbd8f64ec	-0.07001671
235	0xbd89e085	-0.06732277
236	0xbc866b8e	-0.016408708
237	0x3ace03e2	0.001571771
238	0x3c0b7723	0.008512291
239	0x3d8ea096	0.06964223
240	0xbcc02314	-0.023454227
241	0x3da33ce0	0.07970595
242	0x3cb2f192	0.021843705
243	0x3da64998	0.08119506
244	0x3d504cf9	0.050854657
245	0xbd4ec3bf	-0.050479647
246	0x3d668600	0.056280136
247	0xbc84174f	-0.016124396
248	0x3cf7b221	0.030236306
249	0x3dc3386f	0.09532248
250	0xbcc962b4	-0.024583198
251	0x3e1656b6	0.14681515
252	0x3cad9446	0.021188866
253	0x3c7db944	0.015486065
254	0x3c9fbd03	0.019499307
255	0x3d331f6b	0.043731134

backbone.3.bias f4 [48]
0	0x3da11e77	0.07867139
1	0xbc8871a5	-0.016655752
2	0xbd85912a	-0.065218285
3	0xbce1bdb5	-0.02755628
4	0xbbfa3f53	-0.0076369434
5	0xbd86391d	-0.06553862
6	0xbdeb93f3	-0.115028284
7	0x3d428000	0.04748535
8	0x3cae3eea	0.021270234
9	0x39f64a9f	0.00046976373
10	0x3dc52931	0.09626997
11	0x3c276f70	0.01021944
12	0x3ca55992	0.020184312
13	0xbc66cfa5	-0.014087592
14	0x3b549971	0.003244009
15	0xbd25d5f7	-0.040487256
16	0x3daaa9bd	0.08333156
17	0x3d02ee39	0.031965468
18	0x3d0cfff4	0.034423783
19	0x3d052b07	0.032511737
20	0xbbb59e7d	-0.005542575
21	0xbd7a7f24	-0.061156407
22	0x3c867c37	0.016416652
23	0x3d0263a8	0.03183332
24	0x3d9c581c	0.07633993
25	0xbd31ec55	-0.043438274
26	0x3d876f1d	0.0661299
27	0xbd1aa854	-0.037758186
28	0xbd68e5e7	-0.056859877
29	0x3daa5cba	0.083184674
30	0x3d8a4b64	0.06752661
31	0xbd496be7	-0.04917517
32	0x3d8f613c	0.07000968
33	0xbd2ef17e	-0.042710774
34	0xbc6de431	-0.014519737
35	0xbd84899f	-0.06471562
36	0xbd8970a8	-0.067109406
37	0x3cbccf36	0.023048025
38	0x3d4f808e	0.05065971
39	0x3b923c4d	0.004462755
40	0xbd2277e4	-0.039665118
41	0x3d83c908	0.06434828
42	0x3d0a1419	0.033710573
43	0xbc5445b6	-0.0129560735
44	0x3d2f9fe2	0.042877086
45	0x3c94e633	0.018176174
46	0xbd3f59cd	-0.0467165
47	0x3df77034	0.12081948

backbone.6.weight f4 [64, 48, 2, 2]
0	0x3bf1d66a	0.0073802965
1	0x3d3ff5c2	0.046865232
2	0x3daf5198	0.08560485
3	0x3c0ac401	0.008469583
4	0xbc49ec5b	-0.012324418
5	0xbce6374e	-0.028102543
6	0xbd1d197f	-0.038354393
7	0xbc4ea14e	-0.0126117
8	0xbde6574c	-0.11247119
9	0xbcd04425	-0.025423119
10	0xbd027e48	-0.031858712
11	0xbd6afbe4	-0.057369128
12	0xbd9e3ee3	-0.077268384
13	0x3cfe358f	0.031031398
14	0x3cf5307c	0.029930346
15	0x3db38a5b	0.087666236
16	0x3d7826e1	0.060583953
17	0xbda85215	-0.08218781
18	0x3d499744	0.049216524
19	0x3d49cd39	0.04926798
20	0x3cb8ec43	0.022573596
21	0x3dd1e0fd	0.10247991
22	0x3da3285a	0.07966681
23	0x3c16c95e	0.009203283
24	0x3b2e99fe	0.002664208
25	0xbd180396	-0.037112795
26	0x3cd404e3	0.025881236
27	0xbd43b0d2	-0.04777605
28	0x3d99fdb1	0.07519091
29	0x3d24aa94	0.04020174
30	0xbdbcd673	-0.092205904
31	0xbe03f263	-0.12885432
32	0x3c75fc51	0.01501377
33	0x3b56676d	0.0032715455
34	0x3ce74a2d	0.028233612
35	0xbb834167	-0.0040055993
36	0x3da10826	0.07862882
37	0x38efd3db	0.00011435869
38	0x3cc7ed08	0.024405017
39	0xbcd29683	-0.025706535
40	0x3b1cfdb2	0.0023954925
41	0x3e0d4ba9	0.13798393
42	0x3cb198a0	0.021679223
43	0x3dc70d0b	0.097192846
44	0xba6e823a	-0.0009098385
45	0xbd62e69f	-0.05539572
46	0x3da77339	0.08176274
47	0xbcf0033f	-0.029298423
48	0x3d53d5a4	0.051717415
49	0xbe1bec2d	-0.15226813
50	0xbd55cfb4	-0.052200034
51	0xbcd78676	-0.026309233
52	0xbd4b91cd	-0.049699593
53	0x3e01af21	0.12664463
54	0x3e003e38	0.12523735
55	0x3dabf439	0.08396191
56	0x3da710ea	0.08157523
57	0xbdfed26c	-0.124424785
58	0x3b61146f	0.0034344455
59	0xbd1b0b25	-0.037852425
60	0x3d606c2c	0.05479066
61	0xbcdebd15	-0.02718977
62	0x3c8a08ff	0.016849993
63	0xbc8ca46a	-0.017168242
64	0x3c5d9519	0.013524317
65	0x3c5388b2	0.012911009
66	0x3be4f747	0.0069874856
67	0x3dd8d388	0.105872214
68	0x3d08546b	0.033283632
69	0x3dd79300	0.10526085
70	0xbd150be7	-0.036388304
71	0xbda70f30	-0.08157194
72	0xbd3ce791	-0.046119276
73	0xbe1e014f	-0.15430187
74	0x39fb6df6	0.00047956378
75	0x3b5aa7c1	0.003336415
76	0x3b3dc0fd	0.0028954141
77	0xbdb467eb	-0.08808883
78	0x3e256eaa	0.16155496
79	0xbd21fb53	-0.039546322
80	0xbd7a0efe	-0.061049454
81	0xbc46143e	-0.012089787
82	0xbcf22ff6	-0.029563885
83	0x3df45eeb	0.11932167
84	0xbcf4c189	-0.029877441
85	0x3d31f878	0.04344985
86	0x3d24c41b	0.040226083
87	0x3cf5c16d	0.02999946
88	0xbd0395b3	-0.032125186
89	0x3d4fa9a5	0.050698895
90	0x3d7dde41	0.061979536
91	0x3e05317b	0.13007157
92	0xba3e7c58	-0.00072664535
93	0xbc8531a5	-0.016259024
94	0x3d2dc680	0.042425632
95	0xbc0687b3	-0.008211064
96	0x3c24d50c	0.01006056
97	0x3c6fe415	0.014641781
98	0xbdbd602f	-0.09246861
99	0x3c90167c	0.017588846
100	0xbced90b2	-0.02899966
101	0xbd4c237b	-0.049838524
102	0x3c7ae60c	0.0153136365
103	0xbc9fcaae	-0.019505825
104	0x3c6ddbfb	0.014517779
105	0xbe0d9e39	-0.13829888
106	0xbd9b6f36	-0.07589571
107	0x3d9bdbbf	0.076102726
108	0xbccd250f	-0.025042085
109	0xbd9a486d	-0.07533345
110	0x3dbfb556	0.09360759
111	0x3d8a4e46	0.06753211
112	0xbe1f5287	-0.15558825
113	0xbd6c31d4	-0.057664707
114	0x3b43165d	0.0029767968
115	0x3ddc17f5	0.10746757
116	0xbdea6565	-0.11445121
117	0x3caa7b3b	0.020810714
118	0x3dce6c61	0.100792654
119	0xbcec7407	-0.02886392
120	0x3c9b63fb	0.018968573
121	0xbd3633bd	-0.044482935
122	0x3db8131a	0.08988018
123	0x3c9b71af	0.018975107
124	0x3db7f7a3	0.0898278
125	0xbc6e60ff	-0.014549493
126	0x3cdd1ca7	0.026991202
127	0xbda341ed	-0.07971559
128	0xbd3bbaaa	-0.045832314
129	0x3d220fb7	0.039565768
130	0x3d483523	0.0488788
131	0x3dd0b5ee	0.1019095
132	0xbd231bb5	-0.039821345
133	0x3d494db5	0.049146373
134	0xbd038c7a	-0.03211639
135	0x3de4b0a6	0.111665055
136	0x3d578e73	0.052626085
137	0xbe0aad45	-0.1354266
138	0xbc996592	-0.01872519
139	0xbca8263b	-0.020526042
140	0xbd7dd684	-0.061972156
141	0xbd4005e6	-0.046880625
142	0x3d1049de	0.035226695
143	0x3d8f613e	0.07000969
144	0xbca9f404	-0.020746239
145	0xbd969fc4	-0.073546916
146	0x3dce3ea9	0.10070545
147	0x3cb1b44e	0.021692421
148	0x3dea93fc	0.11454007
149	0xbd5902b3	-0.05298109
150	0xbcf38495	-0.029726306
151	0xbd6c9e1d	-0.057767976
152	0x3def5c50	0.11687529
153	0x3c4392c2	0.011936845
154	0x3cea5f6e	0.028609958
155	0x3cf4e6ac	0.02989515
156	0xbd55219b	-0.052034
157	0x3d361df5	0.044462163
158	0x3b8365f1	0.004009955
159	0x3de05e21	0.10955454
160	0x3e02e826	0.1278387
161	0x3e324418	0.17408788
162	0xbd091250	-0.03346473
163	0xbd471357	-0.04860243
164	0x3c1a2311	0.009407775
165	0x3e055d32	0.13023832
166	0xbd8a1b1c	-0.06743452
167	0x3ba5ef4c	0.005063927
168	0x3c9c9946	0.019116055
169	0xbd024d05	-0.031811733
170	0x3c9c47a6	0.019077133
171	0xbcf39db3	-0.029738283
172	0xbdf775e6	-0.12083034
173	0x3dc831b8	0.09775108
174	0xbb2c7787	-0.002631636
175	0x3c35e321	0.011101515
176	0x3c5a21b1	0.013313697
177	0xbda5b93b	-0.080919705
178	0x3b7b78d6	0.0038371584
179	0xbe0e541c	-0.13899273
180	0xbc07aeac	-0.008281391
181	0x3c97dcf4	0.018537976
182	0x3d3efcd9	0.046627853
183	0x3e130c51	0.14360167
184	0x3d3f56be	0.046713583
185	0xbdef1033	-0.11673012
186	0xbd583147	-0.05278137
187	0xbd8f0cc8	-0.0698486
188	0xbc3c0420	-0.011475593
189	0xbc21a740	-0.009866536
190	0xbd260cfc	-0.040539727
191	0xbd2506ae	-0.040289573
192	0x3c84ea3d	0.016224975
193	0x3de73c3c	0.11290786
194	0x3d122a17	0.03568467
195	0xbd0fd79b	-0.035117727
196	0x3d8ed0e2	0.06973435
197	0x3ca1e665	0.019763181
198	0xbd8f02cb	-0.069829546
199	0xbd00251f	-0.0312854
200	0x3d237521	0.039906625
201	0x3c2f5d46	0.01070339
202	0x3c8e043a	0.017336
203	0x3d3a1411	0.045429293
204	0xbc2ffcb2	-0.0107414
205	0xbc0f0750	-0.008729771
206	0x3ca930ce	0.020653155
207	0x3a1d9633	0.0006011456
208	0x3d344cf3	0.044018697
209	0xbd1863ba	-0.03720448
210	0x3d06e2ee	0.03293126
211	0xbd4e6a45	-0.050394315
212	0xbdcbdcb6	-0.09954207
213	0xbd94749b	-0.07248803
214	0xbd852e9a	-0.06503029
215	0xbacd93a9	-0.0015684265
216	0x3d40ddf5	0.047086675
217	0x3d9116d6	0.07084434
218	0xbd597b6c	-0.05309622
219	0x3bbe08dd	0.0057993964
220	0xbd9abc00	-0.075553894
221	0x3d4f48c6	0.05060651
222	0x3d2bb699	0.041922186
223	0x3b9d31dd	0.004797204
224	0xbc997b37	-0.018735511
225	0x3d9f326e	0.077732906
226	0xbde521c3	-0.1118808
227	0x3c7c738d	0.015408409
228	0x3d3ddd58	0.046353668
229	0x3cbbaa75	0.022908429
230	0xbd9611ff	-0.07327651
231	0xbdd621b5	-0.10455648
232	0x3c27bca5	0.010237847
233	0xbdf95232	-0.12173881
234	0xbdb144f2	-0.086557284
235	0x3d18740c	0.037220046
236	0x3d573782	0.05254317
237	0x3d401769	0.046897326
238	0x3d567979	0.05236194
239	0x3d100d3a	0.035168864
240	0xbdea2429	-0.11432678
241	0xbdeed408	-0.116615355
242	0x3d1ba86d	0.03800242
243	0x3b6722bf	0.0035268513
244	0x3dac859c	0.084239215
245	0xbd9559a8	-0.07292491
246	0xbcabc1bb	-0.020966401
247	0xbcedaa68	-0.02901192
248	0x3de0e6bc	0.10981509
249	0xbd9379eb	-0.072009884
250	0xbdd2198d	-0.1025878
251	0x3d98360b	0.07432183
252	0x3d68a64f	0.05679923
253	0xbd6d48c0	-0.057930708
254	0x3ccc4b39	0.024938213
255	0xbd9feb18	-0.078085124

backbone.6.bias f4 [64]
0	0xbd880fcb	-0.06643637
1	0xbd944707	-0.0724011
2	0xbd7500d5	-0.059815247
3	0xbde4de5a	-0.11175223
4	0x3d43f8a1	0.047844533
5	0xbd50b389	-0.050952468
6	0xbda04b19	-0.07826824
7	0xbda7d0da	-0.08194132
8	0xbb53e307	-0.0032331364
9	0x3d921b98	0.07134169
10	0x3dbe7cd8	0.09301156
11	0x3d91cac7	0.07118755
12	0xbdfea536	-0.12433855
13	0xbd5e7600	-0.054311752
14	0x3dab1522	0.0835364
15	0x3d99ab41	0.07503367
16	0x3c4530bc	0.012035545
17	0xbc0cc9af	-0.008593007
18	0xbd9c8a2b	-0.07643541
19	0xbddbaca2	-0.107262865
20	0x3da7e774	0.08198443
21	0xbc3ec750	-0.0116441995
22	0x3dc2e8d8	0.09517068
23	0x3d9ad1ad	0.07559524
24	0x3e375fcb	0.17907636
25	0x3d913868	0.07090837
26	0x3d5c7cfb	0.05383013
27	0x3dab1199	0.08352966
28	0x3d72258a	0.05911783
29	0xbd10f17c	-0.035386547
30	0xbcf869a6	-0.030323815
31	0x3da411ae	0.08011185
32	0xbe0a52d6	-0.13508162
33	0xbd9fee34	-0.078091055
34	0xbd224640	-0.039617777
35	0x3d4922e6	0.049105547
36	0x3d20f6a8	0.03929773
37	0x3be7b674	0.0070713107
38	0x3e02a64c	0.1275875
39	0x3dda1cae	0.106500015
40	0x3cda744d	0.026666785
41	0x3e0ba5d2	0.13637474
42	0x3d7a76ca	0.061148442
43	0xbca18243	-0.019715434
44	0x3db6c3fd	0.089241005
45	0x3df7a2e9	0.120916195
46	0xbd131f78	-0.035918683
47	0xbdb2f821	-0.08738733
48	0xbdba80c3	-0.091065906
49	0xbda92e5f	-0.08260798
50	0xbdd0180e	-0.10160838
51	0xbda43b4d	-0.08019123
52	0xbd219bf1	-0.039455358
53	0x3de96e26	0.11397962
54	0xbc68195f	-0.014166205
55	0x3dcdf3e5	0.10056285
56	0x3e111bed	0.14170809
57	0x3693cdbe	4.404893e-06
58	0x3db471e2	0.08810784
59	0x3cfdcc8c	0.030981325
60	0x3dd48fc5	0.10378984
61	0x3dc1685d	0.09443734
62	0xbd4d7aa9	-0.050165806
63	0x3d399837	0.04531118

fc.0.weight f4 [128, 576]
0	0x3c00d1dc	0.007862534
1	0x3c8798f0	0.016552418
2	0xbd93b501	-0.07212258
3	0x3c6bd4f0	0.01439403
4	0x3d16f04a	0.03685025
5	0xbd8b66dc	-0.06806728
6	0x3d1b722a	0.037950672
7	0x3d9e7987	0.07738023
8	0xbdc8bc1c	-0.09801504
9	0xbbdaf60e	-0.006682164
10	0xbb992cdc	-0.004674537
11	0xbce0d70d	-0.027446294
12	0x3c64bddc	0.013961282
13	0x3b407586	0.0029366924
14	0x3d228a50	0.039682686
15	0xbd2aaf74	-0.04167123
16	0xbce985a8	-0.028506115
17	0x3d834862	0.0641029
18	0xbcad1d3c	-0.021132104
19	0xbc8c3789	-0.017116325
20	0xbd083754	-0.03325589
21	0xbce0ab5b	-0.027425459
22	0xbd0e3785	-0.034720916
23	0x3ba6dc1e	0.005092158
24	0x3cbe3017	0.02321629
25	0xbd1fbaa9	-0.038996372
26	0xbd18c76d	-0.037299562
27	0x3d1d3ce2	0.03838814
28	0xbdadb22a	-0.08481248
29	0x3cda4c02	0.026647571
30	0x3b92d595	0.0044810274
31	0xbbe5bd6c	-0.0070111062
32	0xbcdde825	-0.027088234
33	0xbc7aa18c	-0.015297305
34	0x3d1b3190	0.037889063
35	0xbdd201e0	-0.10254264
36	0xbaa8fc71	-0.0012892616
37	0xbcb1ccfa	-0.021704186
38	0xbaa89fbd	-0.0012864989
39	0xbcb4f07e	-0.022087332
40	0xbceb71a8	-0.028740719
41	0xbd21d185	-0.039506454
42	0x3daa369f	0.083111994
43	0xbcc8a7b6	-0.024494033
44	0x3c98df0e	0.018661048
45	0xbceccd25	-0.028906414
46	0xbd0ff666	-0.035147093
47	0xbcfc4d4e	-0.03079858
48	0x3c539d1a	0.012915874
49	0xbca077b2	-0.019588325
50	0xbcc7bae2	-0.024381105
51	0xbcbe0c6a	-0.023199279
52	0xbc77dd61	-0.015128464
53	0x3d7e00ff	0.06201267
54	0xbd802c4a	-0.062584475
55	0x3c986317	0.018601937
56	0xbc4529ba	-0.012033874
57	0x3c494275	0.012283911
58	0x3b456254	0.0030118423
59	0xbc861583	-0.01636768
60	0xbd5e9118	-0.05433759
61	0xbdccc814	-0.099990994
62	0xbdcf5a51	-0.10124648
63	0xbc1c645a	-0.00954541
64	0xbcb4ed30	-0.022085756
65	0x3deb5f1d	0.11492751
66	0xbd02ed7a	-0.031964757
67	0x3d3b52cf	0.04573327
68	0x3ce8c495	0.02841405
69	0xbcbf1770	-0.023326606
70	0x3c708841	0.014680923
71	0xbe13c7e1	-0.14431717
72	0x3c1c24ce	0.009530259
73	0x3c26189f	0.010137706
74	0x3c82d11d	0.015968854
75	0xbb9b42cb	-0.004738187
76	0x3bf24671	0.007393651
77	0x3d78b41f	0.06071865
78	0x3daa1c86	0.08306222
79	0xbc1922d1	-0.00934668
80	0x3cd9b518	0.02657561
81	0x3cdbb5b7	0.026820047
82	0x3d9f25f6	0.07770912
83	0xbc13a1d7	-0.009010754
84	0x3c457d48	0.012053795
85	0xbc5b07e6	-0.013368582
86	0x3d362b62	0.044474967
87	0xbc70b4dc	-0.014691558
88	0xbd880d7a	-0.066431955
89	0x3a7a47c3	0.00095474365
90	0xbcceadec	-0.025229417
91	0x3c434e53	0.011920529
92	0x3c4833c5	0.012219374
93	0x3d2991af	0.0413987
94	0x3ceb3c4b	0.028715273
95	0xbcad9abe	-0.02119195
96	0x3bff454b	0.007790243
97	0xbb16b3f4	-0.0022995444
98	0x3d100122	0.03515733
99	0xbd08b205	-0.033372898
100	0x3c947f16	0.018127006
101	0x3cabcd21	0.020971837
102	0x3d4ed8c8	0.050499707
103	0xb9107112	-0.00013775032
104	0x3c98d1f4	0.018654801
105	0xbd047efa	-0.032347657
106	0x3c995a73	0.018719887
107	0x3b65eda8	0.003508428
108	0xbd86d296	-0.06583135
109	0x3bbe69c6	0.005810949
110	0xbda85f82	-0.08221342
111	0xbc69fe87	-0.014281875
112	0xbd8482fe	-0.06470297
113	0x3d3879fe	0.045038216
114	0xbd80f1e4	-0.06296137
115	0xbd5e32f3	-0.054247808
116	0xbdca177b	-0.0986776
117	0x3bebfbdd	0.0072016553
118	0x3d30fd4c	0.043210313
119	0x3de1f08f	0.11032211
120	0x3c914e15	0.017737428
121	0x3ca47787	0.020076526
122	0xbc30910a	-0.0107767675
123	0xbd07cf40	-0.033156633
124	0x3a82f201	0.0009990336
125	0xbd04ea6e	-0.032450132
126	0xbc07d0b7	-0.008289508
127	0x3c402aaf	0.011728927
128	0x3d14d13d	0.036332358
129	0x3c8229fe	0.015889164
130	0x3b9db5ab	0.0048129163
131	0x3d108668	0.03528443
132	0x3c36deee	0.011161549
133	0xbceeef95	-0.029166976
134	0xbd43b629	-0.047781143
135	0xbd011e83	-0.03152324
136	0xbcf0b2b7	-0.029382093
137	0x3d306d87	0.043073203
138	0x3b97c26f	0.0046313326
139	0x3bae5f6f	0.005321435
140	0x3d26db79	0.04073665
141	0xba9afccb	-0.0011824606
142	0xbcc5d8b6	-0.024151187
143	0xbda4d03b	-0.08047529
144	0xbbbe354e	-0.0058046943
145	0x3c8521ec	0.016251527
146	0x3b1aa11c	0.0023594564
147	0x3c992671	0.018695088
148	0xb72d7790	-1.0339441e-05
149	0xbc0af9fc	-0.0084824525
150	0x3d55866c	0.052130148
151	0xbc8bd95c	-0.017071418
152	0xbcc617dd	-0.0241813
153	0xbd1346ad	-0.035956074
154	0x3c1c65e3	0.009545776
155	0xbca30c6d	-0.019903386
156	0xbd4d30c5	-0.05009534
157	0xbcdab4bb	-0.026697507
158	0xbbc23e1d	-0.0059278146
159	0xbd63ca79	-0.055613015
160	0xbd1b310c	-0.03788857
161	0x3dd8faae	0.10594688
162	0xbd9cc3d2	-0.07654537
163	0xbd9830e0	-0.07431197
164	0xbdcfac0d	-0.10140238
165	0xbca937a5	-0.020656416
166	0x3c82ec98	0.015981957
167	0x3b7728e1	0.0037713575
168	0x3cc1625c	0.023606472
169	0xbdb06e22	-0.08614756
170	0x3d1f8b07	0.038950946
171	0x3c8f38c0	0.017483115
172	0xbb9202ad	-0.0044558854
173	0xbd459ffa	-0.04824827
174	0xb9151a0e	-0.00014219453
175	0xbd0be794	-0.034156397
176	0xbd5cec17	-0.05393609
177	0x3c4ed804	0.012624744
178	0xbd7b963f	-0.061422583
179	0x3c57eb95	0.013178726
180	0xbc7cdeaf	-0.015433951
181	0x3cf754ef	0.030191867
182	0x3dea8c32	0.114525214
183	0x3d0aee56	0.0339187
184	0x3cc39a39	0.02387725
185	0x3d6c6376	0.05771204
186	0x3b7ac62c	0.0038265092
187	0xbda885da	-0.08228655
188	0x3d5bc77f	0.05365705
189	0x3d3c4b6b	0.04597036
190	0xbccd55c9	-0.02506532
191	0x3bbdeed6	0.0057962937
192	0xbd704319	-0.05865774
193	0xbd75395b	-0.05986915
194	0xbcd75d7f	-0.0262897
195	0x3b9f7153	0.004865804
196	0x3d4b1eaa	0.04958979
197	0x3d568d53	0.05238087
198	0x3d60302e	0.054733448
199	0x3d3a9415	0.04555138
200	0x3d61bd50	0.055112183
201	0xbb8d369b	-0.004309488
202	0x3c105af0	0.008810744
203	0xbc2216bb	-0.009893115
204	0xbbce1bf7	-0.0062899548
205	0x3d75b819	0.059990022
206	0x3d0ac0d3	0.033875298
207	0x3c904660	0.017611682
208	0x3cb8e39b	0.022569468
209	0x3d29ec75	0.04148527
210	0x3d4b08c1	0.049568895
211	0x3d65b129	0.056077156
212	0xbc577fda	-0.013153041
213	0xbc047182	-0.008083703
214	0x3bc1d8c7	0.0059157345
215	0xbc5ef9f5	-0.013609399
216	0xbce65ae5	-0.028119514
217	0x3be0d3ab	0.0068611703
218	0x3d1b322e	0.037889652
219	0xbd218076	-0.03942915
220	0x3b408a93	0.0029379472
221	0x3bc68560	0.00605838
222	0xbb7cc9da	-0.0038572461
223	0x3cc35c1f	0.023847638
224	0x3da4397e	0.08018778
225	0xbcea4e5d	-0.02860182
226	0xbc8cef28	-0.017203882
227	0x3cbf0f52	0.023322735
228	0x3cc35c0e	0.023847606
229	0xbcac196e	-0.02100822
230	0x3d9b625a	0.075871184
231	0xbc81f9bd	-0.015866155
232	0x3d2971de	0.041368358
233	0x3d9680ba	0.073487714
234	0xbd6135e4	-0.054983035
235	0xbbc592b0	-0.0060294494
236	0xbbe8f76a	-0.007109572
237	0x3c96aa83	0.018391853
238	0xbc7d090b	-0.015444051
239	0x3ccbb39f	0.024865923
240	0x3d8ec7a3	0.069716714
241	0x3d3c5ef7	0.045989003
242	0x3d9e8b01	0.07741357
243	0x3a93f86e	0.0011289248
244	0x3c7a742e	0.015286488
245	0x3d864f10	0.06558049
246	0x3be4598e	0.0069686836
247	0x3d81a219	0.06329746
248	0xbc91cb13	-0.017797029
249	0x3bd73789	0.0065678996
250	0xbc988e8c	-0.01862266
251	0xbcd14193	-0.025543964
252	0x3d434d5e	0.047681205
253	0xbb867710	-0.004103549
254	0x3e0c4847	0.13699447
255	0xbd25e45a	-0.040500976

fc.0.bias f4 [128]
0	0x3dbbe685	0.091748275
1	0xbe2a54cd	-0.16633911
2	0x3d0c6e4b	0.03428487
3	0xbd12ee68	-0.035871893
4	0x3d5a51fe	0.05330085
5	0x3c925846	0.017864358
6	0xbd921d20	-0.071344614
7	0x3c122f5f	0.008922427
8	0x3d6efb8b	0.05834536
9	0x3bfd01a5	0.0077211433
10	0x3c86f713	0.016475236
11	0x3d91e3ae	0.071235046
12	0x3d868f42	0.06570293
13	0xbd1dd820	-0.03853619
14	0x3bdf04bb	0.006805984
15	0x3d4d6d37	0.050152984
16	0x3de6ab91	0.112631924
17	0x3babbcdf	0.005241021
18	0x3d6aecbd	0.057354677
19	0x3da6c287	0.08142572
20	0x3cbbd1ec	0.022927247
21	0x3cddcdc7	0.027075661
22	0xbd0bd910	-0.034142554
23	0xbe3b674b	-0.18301122
24	0x3e009fa8	0.12560904
25	0xbde53a8b	-0.11192807
26	0x3cf97982	0.030453447
27	0xbce38140	-0.027771592
28	0xbd9cbc03	-0.07653048
29	0x3d492959	0.049111698
30	0xbc8e7067	-0.017387582
31	0xbd2f0366	-0.04272785
32	0xbdd0be4a	-0.10192545
33	0x3ca9211a	0.020645667
34	0xbb893524	-0.004187243
35	0xbbd8ab06	-0.0066121845
36	0xbe4d005a	-0.20019665
37	0x3d2c5a8b	0.042078536
38	0xbe1e0f80	-0.154356
39	0x3d376899	0.044777486
40	0xbde58e12	-0.112087384
41	0x3d318908	0.043343574
42	0x3db7fe66	0.089840695
43	0x3ce0bc74	0.027433611
44	0x3dd3290b	0.10310563
45	0xb9d048e5	-0.00039727162
46	0x3e015a2a	0.12632051
47	0x3d88b2b6	0.066747114
48	0xbd395b64	-0.045253173
49	0xbd27ed9e	-0.040998094
50	0x3d9ac742	0.07557537
51	0x3da077f5	0.0783538
52	0x3b0789a9	0.0020681417
53	0x3d0dba7f	0.034601685
54	0x3c0ee18b	0.008720766
55	0x3c097a7e	0.008391021
56	0x3df5e2fe	0.12006186
57	0xbbb362c0	-0.0054744184
58	0x3cca2874	0.024677493
59	0x3dc8f07a	0.09811492
60	0x3d646888	0.05576375
61	0x3d8cfda1	0.068843134
62	0xbc91ecfb	-0.017813196
63	0xbe361cca	-0.1778442
64	0x3dcab464	0.09897688
65	0x3d89fe73	0.067379855
66	0x3da6ce81	0.08144856
67	0x3dff2de5	0.124599256
68	0xbb06ad39	-0.0020550026
69	0x3d1c790c	0.038201377
70	0xbc38c848	-0.0112782195
71	0xbc9d1d15	-0.019178906
72	0x3c0d9ee1	0.008643837
73	0xbd7b884d	-0.061409283
74	0x3d467878	0.04845473
75	0x3bb52607	0.005528215
76	0x3c9dcb3d	0.01926195
77	0xbe08ef67	-0.13372575
78	0x3da23db7	0.079219274
79	0x3c9c0181	0.019043686
80	0x3d46cceb	0.04853527
81	0x3cb3e3f6	0.021959286
82	0xbdb46353	-0.08808007
83	0xb9bb5fc2	-0.00035738765
84	0xbe359fa7	-0.17736684
85	0x3d1663ce	0.036716275
86	0xbe0d2d16	-0.1378673
87	0x3d1c31e4	0.038133517
88	0x3d55dee9	0.052214537
89	0x3d0748f7	0.03302857
90	0x3c7450b9	0.014911824
91	0x3e200017	0.15625034
92	0x3d3682b8	0.044558257
93	0x3a7faed8	0.0009753532
94	0x3d50200e	0.05081182
95	0xbe0c73fe	-0.13716123
96	0x3cba9f3c	0.022781007
97	0xbd83e734	-0.06440583
98	0x3aab7bf4	0.0013083206
99	0xbaa75d53	-0.0012768902
100	0xbc44d224	-0.012012992
101	0x3c934868	0.017978862
102	0x3b3f5c2c	0.0029199226
103	0xbc331993	-0.01093139
104	0x3d5fa80e	0.05460363
105	0x3d4d549a	0.05012951
106	0x3d63a479	0.055576775
107	0x3d7424e8	0.05960551
108	0x3d57f929	0.052727852
109	0x3e35e6d3	0.17763834
110	0x3db97821	0.09056116
111	0x3da46556	0.08027141
112	0x3db53310	0.0884763
113	0xbd5461c6	-0.051851057
114	0x3d383d17	0.044980135
115	0x3cb399c9	0.021923916
116	0xbabceba4	-0.0014413488
117	0xbd8229fe	-0.063556656
118	0x3d8d5bbb	0.06902262
119	0xbbf61dda	-0.007510883
120	0x3d1e8d6b	0.038709085
121	0x3cff782c	0.031185232
122	0xbc692b15	-0.014231463
123	0x3d67a3b1	0.056552593
124	0x3d9b03b6	0.07569067
125	0xbd1c538b	-0.03816561
126	0x3ddfea73	0.109333895
127	0x3d449367	0.047992136

cls_layer.weight f4 [2, 128]
0	0x3dacc44e	0.0843588
1	0xbe53d2db	-0.20685904
2	0x3e1fff39	0.15624703
3	0xbe1a53d7	-0.15071045
4	0x3e203c08	0.156479
5	0xbe1f8110	-0.15576577
6	0x3d54f6fd	0.05199336
7	0x3e3923cd	0.18080063
8	0x3d7e9504	0.06215383
9	0x3e1786ae	0.1479747
10	0x3e0fbfb6	0.14037976
11	0x3e149358	0.14509332
12	0x3e0e8c0c	0.13920611
13	0xbe8f4739	-0.27984026
14	0x3d752956	0.059853874
15	0x3e1a2e22	0.15056661
16	0x3e0b8c90	0.13627839
17	0xbe958863	-0.29205617
18	0x3e9f38a5	0.31097904
19	0x3e2f07e5	0.17092855
20	0x3dfde5fe	0.12397383
21	0xbdab7bdb	-0.08373233
22	0xbdd03de9	-0.101680584
23	0xbdb59aa0	-0.08867383
24	0xbd1a13b3	-0.037616443
25	0xbde9cb97	-0.11415785
26	0x3dc132f9	0.094335504
27	0xbe5770ed	-0.21039172
28	0xbe2525e4	-0.16127735
29	0x3dd2ecc3	0.10299065
30	0xbd7621ba	-0.060090758
31	0x3e0030e2	0.12518647
32	0xbd8d68f3	-0.06904783
33	0x3e366a25	0.17813928
34	0xbe312804	-0.17300421
35	0x3e3b81e5	0.1831127
36	0xbca09fcc	-0.019607447
37	0xbdb15c66	-0.08660202
38	0xbcf9964e	-0.030467179
39	0x3e2aecc0	0.16691875
40	0xbd6638a7	-0.05620637
41	0x3e697551	0.22798659
42	0xbe14bd65	-0.14525373
43	0xbe247d8d	-0.16063519
44	0xbd3fa2c8	-0.0467861
45	0x3e014cb5	0.12626918
46	0xbbfcaad9	-0.0077107963
47	0x3e35a52c	0.1773879
48	0xbcf7d3bd	-0.030252332
49	0xbe403f0e	-0.18774053
50	0xbe2b88fa	-0.16751471
51	0xbe965bd8	-0.29366946
52	0x3ddb58a8	0.10710269
53	0xbe454de8	-0.19268
54	0x3ded5839	0.11589093
55	0xbe7b6a8d	-0.24552365
56	0xbc6442d8	-0.013931952
57	0x3e1f1c43	0.15538125
58	0x3dfcf588	0.12351519
59	0x3e565bcb	0.20933454
60	0x3d587e1d	0.052854646
61	0x3e1f7c01	0.15574647
62	0xbe8ce1c5	-0.27515998
63	0xbdd544c4	-0.104135066
64	0xbd8a2e9c	-0.06747171
65	0x3dc17e67	0.094479375
66	0xbcfe93de	-0.031076368
67	0xbd8d49d9	-0.06898851
68	0xbe936837	-0.28790447
69	0xbe0a70f9	-0.13519658
70	0x3e22c569	0.15895618
71	0xbe2d11d7	-0.16901337
72	0x3e3a224c	0.18177146
73	0xbe8be01d	-0.27319422
74	0x3e38b800	0.1803894
75	0xbe79ad98	-0.24382627
76	0x3d252ded	0.040327
77	0x3c5ad65c	0.013356771
78	0xbd5ea538	-0.054356784
79	0xbe589324	-0.2114988
80	0xbe313abd	-0.17307563
81	0xbde74eb9	-0.11294312
82	0xbde0d5d1	-0.10978282
83	0xbe57d985	-0.21079071
84	0xbe62a762	-0.22134164
85	0x3e243300	0.1603508
86	0xbd5307d6	-0.051521145
87	0xbde5644b	-0.1120077
88	0xbe38c2c2	-0.18043044
89	0x3e08598e	0.13315412
90	0x3d802db8	0.0625872
91	0x3e02a3f0	0.1275785
92	0xbe1b9c3d	-0.15196319
93	0xbe30f0a4	-0.17279297
94	0x3e4adc21	0.19810535
95	0x3cd398e2	0.025829736
96	0x3e317418	0.17329443
97	0x3e088b4c	0.13334388
98	0x3e1665ff	0.14687346
99	0xbe797c7e	-0.24363896
100	0xbe324553	-0.17409258
101	0x3d9c3fbb	0.07629343
102	0xbe55fbce	-0.20896837
103	0x3ddd314d	0.10800419
104	0x3dab24c9	0.083566256
105	0xbe7caa7f	-0.24674414
106	0x3e2d6c95	0.16935952
107	0x3dfbcd15	0.12294976
108	0x3df1bd55	0.1180369
109	0x3ca9b93a	0.020718206
110	0xbd16700f	-0.03672796
111	0x3df773b4	0.120826155
112	0x3dbcdcf7	0.09221833
113	0xbe456728	-0.19277632
114	0xbdd7fca9	-0.10546238
115	0x3d9df598	0.07712859
116	0x3d8fa565	0.070139684
117	0xbd6302b0	-0.055422485
118	0x3dfe6f54	0.12423578
119	0xbe6867eb	-0.22695892
120	0xbe12eac6	-0.14347371
121	0x3d2304ca	0.03979949
122	0xbe2bfce0	-0.16795683
123	0x3e228711	0.15871836
124	0x3dbf15d4	0.09330335
125	0xbdcba1bb	-0.09942957
126	0x3e012275	0.126108
127	0x3d85c009	0.065307684
128	0xbda329a9	-0.079669304
129	0x3e1a19b6	0.1504887
130	0xbe0d4cb7	-0.13798796
131	0x3e3bb332	0.18330076
132	0xbd9afb8e	-0.075675115
133	0x3dc56e20	0.09640145
134	0x3ddedf69	0.10882456
135	0xbd92bb44	-0.07164624
136	0xbe35a2d4	-0.17737895
137	0xbddbf067	-0.107392125
138	0xbe534f99	-0.20635833
139	0xbe4a2de7	-0.19744073
140	0xbe65e455	-0.22450383
141	0x3eb94d79	0.3619192
142	0xbd957d98	-0.07299346
143	0xbe322683	-0.17397504
144	0xbe3309ac	-0.17484158
145	0x3e9b3bd2	0.30319077
146	0xbe88966e	-0.2667727
147	0xbdb96583	-0.09052565
148	0xbe039dfc	-0.12853235
149	0x3e62448e	0.22096464
150	0x3d47d257	0.04878458
151	0xbd94df49	-0.07269151
152	0x3de8dd3b	0.11370321
153	0x3dc7267a	0.09724136
154	0xbe30a0c9	-0.17248835
155	0x3e58da63	0.21177058
156	0x3e73b843	0.23800759
157	0xbd901c01	-0.07036591
158	0x3d1ef189	0.038804565
159	0xbcd51547	-0.026011122
160	0x3d93b063	0.072113775
161	0xbe0bad50	-0.13640332
162	0x3dbf5045	0.09341482
163	0xbdaec8ac	-0.08534369
164	0x3e0dca29	0.13846649
165	0x3dd11261	0.102085836
166	0xbc8c49cb	-0.017125031
167	0xbe226590	-0.15859056
168	0x3c359845	0.011083667
169	0xbe37040b	-0.17872636
170	0x3e2ded5f	0.16985081
171	0x3e59c00a	0.21264663
172	0x3df776fa	0.1208324
173	0xbe244d14	-0.16045028
174	0x3da65739	0.08122105
175	0xbe2e987f	-0.1705036
176	0xbd2dbf1c	-0.042418584
177	0x3e1eec84	0.15519911
178	0x3d176706	0.036963485
179	0x3e14eb81	0.14542963
180	0xbe1b2382	-0.15150264
181	0x3dcf08ec	0.101091236
182	0xbdef6e13	-0.11690917
183	0x3e9667a0	0.29375935
184	0x3d75a55a	0.059972145
185	0xbe1bed79	-0.15227307
186	0xbe408989	-0.18802465
187	0xbe85f9ab	-0.26167044
188	0xbd95098e	-0.07277213
189	0xbdcd3337	-0.10019534
190	0x3e139a5b	0.1441435
191	0x3d1fe655	0.03903802
192	0xbd3bdd4b	-0.04586534
193	0xbdebef2f	-0.1152023
194	0xbde8439f	-0.11341023
195	0x3d80dba0	0.0629189
196	0x3eaa0562	0.33207232
197	0x3e375c71	0.17906357
198	0xbe58c98b	-0.21170633
199	0x3e0f9144	0.14020258
200	0xbe2d2fad	-0.16912718
201	0x3e0378cf	0.12839054
202	0xbe286581	-0.1644497
203	0x3ea9488b	0.33063158
204	0xbde07e76	-0.109616205
205	0xbdcc3360	-0.099707365
206	0x3d44717f	0.0479598
207	0x3e2c1b87	0.16807376
208	0x3dda835b	0.10669585
209	0x3e178a3e	0.14798829
210	0xbcf581ab	-0.029969057
211	0x3e220ae5	0.15824468
212	0x3e1c1051	0.15240599
213	0xbdc070f3	-0.09396543
214	0xbaacc90c	-0.0013182475
215	0x3e14536d	0.1448495
216	0x3e0adecc	0.13561553
217	0xbcbd4842	-0.023105744
218	0xbd98f632	-0.07468833
219	0x3aae0c2f	0.0013278777
220	0x3e1c8944	0.15286738
221	0x3e5a74d6	0.21333632
222	0xbe1e1411	-0.15437342
223	0x3d8ee156	0.06976573
224	0xbe37ec8e	-0.17961332
225	0xbd8083b7	-0.062751226
226	0xbe3af0d4	-0.18255931
227	0x3e39b61a	0.18135872
228	0x3e3ebb85	0.1862622
229	0xbdc30d33	-0.09524002
230	0x3e5347d4	0.20632869
231	0xbe286bcc	-0.16447371
232	0xbe355e92	-0.17711857
233	0x3e967e4f	0.2939324
234	0xbd8ae262	-0.0678146
235	0xbe117c25	-0.14207514
236	0xbe30ea62	-0.1727691
237	0xbdb90435	-0.090340056
238	0x3c77f613	0.015134352
239	0xbe3b1a72	-0.18271807
240	0xbe1f6e20	-0.15569353
241	0x3e660a52	0.22464874
242	0x3e6c628e	0.2308447
243	0xbe7a12d9	-0.24421252
244	0xbe449d1d	-0.19200559
245	0xbccaed91	-0.024771484
246	0xbe12b105	-0.1432534
247	0x3e2feb89	0.17179693
248	0x3e3e598b	0.18588845
249	0xbe1e0ace	-0.15433809
250	0x3e39f727	0.18160687
251	0xbe1329a9	-0.14371361
252	0xbd85a90a	-0.06526382
253	0x3e694653	0.22780733
254	0xbdc580f5	-0.09643737
255	0xbe70468e	-0.23464414

cls_layer.bias f4 [2]
0	0xbd6fe731	-0.05857009
1	0x3d33c2d4	0.043886974

bbox_layer.weight f4 [4, 128]
0	0xbd78d3d8	-0.060748905
1	0xbca35276	-0.019936781
2	0xbcff6648	-0.031176701
3	0xbcbab035	-0.0227891
4	0x3d9d9269	0.07693941
5	0xbc291176	-0.010319104
6	0xbda56b36	-0.080770895
7	0xbd55e5ef	-0.052221235
8	0xbd3695c6	-0.04457643
9	0xbc84fe76	-0.016234618
10	0x3cc3c2cd	0.0238966
11	0x3ce7113b	0.028206458
12	0xbd4746c1	-0.04865146
13	0xbd090d0c	-0.033459708
14	0x3d875cc3	0.0660949
15	0xbcf3ba03	-0.029751783
16	0x3d38cb77	0.045115914
17	0x3c12a961	0.008951516
18	0x3d334d45	0.04377486
19	0xbca2cc45	-0.019872794
20	0x3d6703da	0.056400158
21	0xbcda9704	-0.026683338
22	0xbd39e63d	-0.045385588
23	0xbbd12d68	-0.0063835867
24	0x3d98c681	0.074597366
25	0x3b9c72c8	0.004774425
26	0xbd637841	-0.055534605
27	0x3cdb592b	0.026775917
28	0x3d67fe09	0.05663875
29	0xbd4f3ffd	-0.050598133
30	0x3d2292fd	0.03969096
31	0xbd5ec35a	-0.05438552
32	0xbcf026ff	-0.02931547
33	0xbd858d1b	-0.06521054
34	0xbd4286e4	-0.047491923
35	0xbd2cab87	-0.04215577
36	0xbd467b7c	-0.048457608
37	0x3c506d59	0.012721383
38	0x3d8eab60	0.06966281
39	0xbbba161f	-0.0056789066
40	0x3ce3f857	0.027828379
41	0x37beded6	2.2753531e-05
42	0x3cfa24ec	0.030535184
43	0xbdc3f6f4	-0.09568587
44	0x3d8da715	0.06916634
45	0x3cd01a00	0.025403023
46	0x3c2262d6	0.00991126
47	0xbd0d2d59	-0.034467075
48	0xbd346b11	-0.04404742
49	0xbc15b397	-0.009137056
50	0xbd4831c8	-0.0488756
51	0x3d9ee9c7	0.07759433
52	0xbd2c7784	-0.042106166
53	0x3d8eba0b	0.06969079
54	0xbd2466a0	-0.040136933
55	0xbc9ac4b3	-0.018892622
56	0xbd8e6374	-0.06952563
57	0xbd34c1c6	-0.04413011
58	0xbcebc647	-0.02878107
59	0xbcddb749	-0.027064936
60	0xbd654aa4	-0.055979386
61	0xbbb9b8da	-0.005667788
62	0x3ca83df6	0.020537358
63	0x3c6a04ce	0.014283372
64	0xbc68f561	-0.014218659
65	0x3cbfec46	0.023428094
66	0xbe4f5401	-0.20246889
67	0xbd0a5b72	-0.033778615
68	0x3d639482	0.05556155
69	0x3d427183	0.047471534
70	0xbd8e5627	-0.06950026
71	0xbcd71810	-0.026256591
72	0xbc55b1f9	-0.01304292
73	0x3d8bc905	0.06825451
74	0xbd3d46af	-0.046209987
75	0xbd4adcdd	-0.049527038
76	0xbcb6b4f3	-0.02230308
77	0x3aaacced	0.0013031043
78	0xba652107	-0.0008740578
79	0x3d4e4a84	0.050364032
80	0x3d9207e2	0.0713041
81	0x3c6d3ae4	0.014479373
82	0xbcab398e	-0.020901468
83	0xbcf6ed7d	-0.03014254
84	0xbd6634ed	-0.056202818
85	0x3ca55b93	0.020185268
86	0x3afdde6c	0.0019368655
87	0x3d847c3b	0.064690076
88	0x3d350c01	0.0442009
89	0x3dc7c3d7	0.0975415
90	0x3db06c68	0.08614427
91	0xbb1662d3	-0.0022947087
92	0xbc87056b	-0.016482076
93	0xbcd38010	-0.0258179
94	0x3d270131	0.04077262
95	0xbd01829c	-0.0316187
96	0xbdafdfee	-0.08587633
97	0x3ba97a67	0.005172062
98	0x3d196cbe	0.03745722
99	0x3d7c06e7	0.06153002
100	0xbda23ef9	-0.07922167
101	0xbcfbff8d	-0.030761505
102	0xbd64f854	-0.055900887
103	0xbd4d71f0	-0.050157487
104	0x3d9edcac	0.077569336
105	0xbc1f9d83	-0.009742144
106	0xbd1affc1	-0.037841562
107	0x3d181818	0.037132353
108	0x3d787064	0.06065406
109	0xbd55b1d1	-0.052171532
110	0x3d847a77	0.06468671
111	0x3cd409ce	0.025883581
112	0x3d7cde63	0.061735522
113	0x3ba1b0d4	0.0049344096
114	0x3cedb986	0.029019129
115	0xbb20692d	-0.0024476752
116	0x3d611033	0.05494709
117	0x3d562a03	0.05228616
118	0x3d8211e2	0.06351067
119	0xbd986602	-0.074413314
120	0xbcfb8e2b	-0.03070744
121	0x3d9bc278	0.07605451
122	0xbd941c88	-0.072320044
123	0xbd3edf38	-0.046599597
124	0x3d94f7b4	0.07273808
125	0xbd14fd0b	-0.036374133
126	0x3cea25f0	0.028582543
127	0x3ca344c9	0.01993026
128	0xbcd1b8ca	-0.02560081
129	0x3d053711	0.03252322
130	0xbc94533a	-0.018106092
131	0xbd095a5c	-0.03353344
132	0x3c2c377c	0.010511275
133	0xbd90ea92	-0.07075991
134	0x3ce9af09	0.028525846
135	0xbe014e74	-0.12627584
136	0x3dacfb10	0.08446324
137	0xbbe3a04d	-0.0069465996
138	0xbd972abb	-0.07381197
139	0x3d07e3bf	0.03317618
140	0x3d7afa58	0.061273903
141	0x3d0be256	0.034151398
142	0x3d831a0e	0.06401454
143	0xbc90671a	-0.017627288
144	0x3cd6944a	0.026193757
145	0x3dacaafd	0.08431051
146	0xbd2272e9	-0.039660368
147	0xbd4f2e74	-0.05058141
148	0xbbe4c043	-0.006980927
149	0x3ca0ebc8	0.01964368
150	0xbd4382a5	-0.047732014
151	0xbd30df30	-0.0431816
152	0xbd28a137	-0.04116937
153	0xbd12ddc2	-0.035856016
154	0xbd067abd	-0.032831896
155	0xbc0d37b7	-0.0086192405
156	0x3d51e220	0.05124104
157	0x3cbdf539	0.02318822
158	0x3d341cb1	0.043972675
159	0xbd44f682	-0.04808665
160	0xbd8fc201	-0.07019425
161	0x3d92fb9a	0.071768954
162	0x3d4778d3	0.04869921
163	0x3cd0508c	0.025429033
164	0xbd89cc35	-0.067284025
165	0xbd7fce1e	-0.062452428
166	0xbdafd1fa	-0.08584972
167	0x3d4f760c	0.050649688
168	0xbd8c4405	-0.06848911
169	0x3b6faf14	0.003657286
170	0xbcf1212f	-0.029434768
171	0xbe923113	-0.28553066
172	0x3cffdc1d	0.031232888
173	0x3c0ab588	0.008466132
174	0x3b7d6acb	0.003866839
175	0xbd862e4c	-0.06551799
176	0x3cf3bbc5	0.029752621
177	0xbd7c9d99	-0.061673734
178	0xbc656319	-0.0140006775
179	0x3c24af4b	0.010051559
180	0xbca2323e	-0.019799348
181	0xbcff863c	-0.031191938
182	0xbd0f9afa	-0.035059907
183	0xbd1a6762	-0.03769625
184	0xbcaff811	-0.021480592
185	0x3d5e715d	0.05430733
186	0x3d9a9d5f	0.075495474
187	0xbd85c6c6	-0.06532054
188	0xbc8ad4af	-0.016947119
189	0x3ca07b6c	0.019590102
190	0x3d22c626	0.03973975
191	0x3d2fc210	0.04290968
192	0xbd7bf6a4	-0.06151451
193	0x3baa31e6	0.0051939366
194	0xbd0b11c0	-0.033952475
195	0xbba95a8f	-0.005168266
196	0xbc91192f	-0.017712204
197	0xbb3f7530	-0.0029214136
198	0x3d464807	0.048408534
199	0xbd8a98ff	-0.06767463
200	0xbcb2f71f	-0.021846352
201	0x3e87c1da	0.26515085
202	0xbd7e709d	-0.062119115
203	0xbd2db043	-0.042404424
204	0xbc942c76	-0.018087607
205	0xbcffcb3a	-0.031224836
206	0x3bda11a8	0.006654937
207	0x3dac26b4	0.084058195
208	0x3d5faa55	0.0546058
209	0x3d199e92	0.03750474
210	0xbcb0f80d	-0.021602655
211	0x3d8a377c	0.06748864
212	0xbd94db0c	-0.072683424
213	0xbcb59121	-0.02216393
214	0xbc0469ba	-0.008081848
215	0x3bf187ad	0.00737091
216	0xbd9a5fc5	-0.07537798
217	0xbc328f09	-0.01089836
218	0x3e022c83	0.12712292
219	0x3d58c214	0.052919462
220	0x3c9a9bfe	0.018873211
221	0xbd5d4e67	-0.05402985
222	0x3d5057c9	0.05086497
223	0xbd5620bb	-0.052277308
224	0xbdc6f9f8	-0.097156465
225	0xbd520da9	-0.05128256
226	0x3d5b132e	0.053485088
227	0x3d47a38d	0.04873996
228	0x3d06e6a6	0.032934807
229	0xbd829ea4	-0.063779145
230	0x3c21a19a	0.009865189
231	0x3cb4069e	0.021975812
232	0xbd564110	-0.052308142
233	0x3d0dabbc	0.034587607
234	0xbdce3e1a	-0.10070439
235	0xbd878bd7	-0.06618469
236	0x3c693afa	0.0142352525
237	0x3d0c447e	0.034245007
238	0xbc980f85	-0.018562088
239	0xbdabc113	-0.08386435
240	0x3d954c23	0.072899126
241	0x3d173720	0.036917806
242	0x3d3b0585	0.04565956
243	0xbcd43441	-0.025903823
244	0x3c7f3876	0.015577426
245	0xbc8fced0	-0.01755467
246	0x3d047fd6	0.032348476
247	0xbb121f85	-0.002229662
248	0xbd4ad5eb	-0.049520414
249	0xbd4459d3	-0.047937226
250	0xbd2860b7	-0.04110786
251	0xbd64431e	-0.05572807
252	0x3cdbf2a5	0.0268491
253	0x3ca335b3	0.019923067
254	0xbcbc1796	-0.022960465
255	0x3c912dc1	0.017722012

bbox_layer.bias f4 [4]
0	0x3db01e93	0.085995816
1	0xbc41cf75	-0.011829247
2	0x3d42a24e	0.047518067
3	0xbcae738f	-0.021295337
